darknet_tflite/myModel/coco/output_model/yolo-fastest-1.1-int8_vela.tflite (tflite, 516784 bytes, 2 tensors)

main_split_1_command_stream u1 [18296]
00000000: 434f 5031 0100 1000 0830 0000 0000 0610
00000010: 0500 0000 0500 0000 0500 0000 0200 d611
00000020: 3001 0000 3040 0000 304d 0100 3101 0100
00000030: 3140 0000 00f0 0a00 3240 0000 8001 0000
00000040: 1000 0000 3040 0000 5000 0000 3101 0301
00000050: 3140 0000 00b8 0000 3240 0000 0001 0000
00000060: 1000 0000 0f01 0100 0040 0000 0040 0600
00000070: 0140 0000 0000 0000 0240 0000 0000 0000
00000080: 0340 0000 0000 0000 0b01 3f01 0c01 3f01
00000090: 0a01 3f01 0401 0200 0640 0000 0100 0000
000000a0: 0540 0000 c003 0000 0440 0000 0300 0000
000000b0: 0901 80ff 0501 0100 0701 0000 0001 0100
000000c0: 0101 0100 0301 0000 0201 0000 1f01 0100
000000d0: 1040 0000 0000 0000 1140 0000 0000 0000
000000e0: 1240 0000 0000 0000 1340 0000 0000 0000
000000f0: 1b01 9f00 1c01 9f00 1a01 9f00 1201 9f00
67 79 80 49 1 0 16 0
8 48 0 0 0 0 6 16
5 0 0 0 5 0 0 0
5 0 0 0 2 0 214 17
48 1 0 0 48 64 0 0
48 77 1 0 49 1 1 0
49 64 0 0 0 240 10 0
50 64 0 0 128 1 0 0
16 0 0 0 48 64 0 0
80 0 0 0 49 1 3 1
49 64 0 0 0 184 0 0
50 64 0 0 0 1 0 0
16 0 0 0 15 1 1 0
0 64 0 0 0 64 6 0
1 64 0 0 0 0 0 0
2 64 0 0 0 0 0 0
3 64 0 0 0 0 0 0
11 1 63 1 12 1 63 1
10 1 63 1 4 1 2 0
6 64 0 0 1 0 0 0
5 64 0 0 192 3 0 0
4 64 0 0 3 0 0 0
9 1 128 255 5 1 1 0
7 1 0 0 0 1 1 0
1 1 1 0 3 1 0 0
2 1 0 0 31 1 1 0
16 64 0 0 0 0 0 0
17 64 0 0 0 0 0 0
18 64 0 0 0 0 0 0
19 64 0 0 0 0 0 0
27 1 159 0 28 1 159 0
26 1 159 0 18 1 159 0

main_split_1_flash u1 [497088]
00000000: 0000 0000 0000 0000 0000 0000 0000 0000
00000010: 0000 0000 0000 0000 0000 0000 0000 0000
00000020: 0000 0000 0000 0000 0000 0000 0000 0000
00000030: 0000 0000 0000 0000 0000 0000 0000 0000
00000040: 0000 0000 0000 0000 0000 0000 0000 0000
00000050: 8081 8181 8181 8182 8282 8282 8383 8383
00000060: 8383 8484 8484 8484 8585 8585 8586 8686
00000070: 8686 8687 8787 8787 8788 8888 8888 8889
00000080: 8989 8989 8a8a 8a8a 8a8a 8b8b 8b8b 8b8b
00000090: 8c8c 8c8c 8c8d 8d8d 8d8d 8d8e 8e8e 8e8e
000000a0: 8e8f 8f8f 8f8f 9090 9090 9090 9191 9191
000000b0: 9191 9292 9292 9293 9393 9393 9394 9494
000000c0: 9494 9495 9595 9595 9696 9698 9a9b 9d9f
000000d0: a1a2 a4a6 a8a9 abad afb0 b2b4 b6b7 b9bb
000000e0: bdbe c0c2 c4c6 c7c9 cbcd ced0 d2d4 d5d7
000000f0: d9db dcde e0e2 e3e5 e7e9 ebec eef0 f2f3
0 0 0 0 0 0 0 0
0 0 0 0 0 0 0 0
0 0 0 0 0 0 0 0
0 0 0 0 0 0 0 0
0 0 0 0 0 0 0 0
0 0 0 0 0 0 0 0
0 0 0 0 0 0 0 0
0 0 0 0 0 0 0 0
0 0 0 0 0 0 0 0
0 0 0 0 0 0 0 0
128 129 129 129 129 129 129 130
130 130 130 130 131 131 131 131
131 131 132 132 132 132 132 132
133 133 133 133 133 134 134 134
134 134 134 135 135 135 135 135
135 136 136 136 136 136 136 137
137 137 137 137 138 138 138 138
138 138 139 139 139 139 139 139
140 140 140 140 140 141 141 141
141 141 141 142 142 142 142 142
142 143 143 143 143 143 144 144
144 144 144 144 145 145 145 145
145 145 146 146 146 146 146 147
147 147 147 147 147 148 148 148
148 148 148 149 149 149 149 149
150 150 150 152 154 155 157 159
161 162 164 166 168 169 171 173
175 176 178 180 182 183 185 187
189 190 192 194 196 198 199 201
203 205 206 208 210 212 213 215
217 219 220 222 224 226 227 229
231 233 235 236 238 240 242 243
