darknet_tflite/myModel/coco/output_model/yolo-fastest-1.1-f32.tflite (tflite, 585032 bytes, 84 tensors)

model/conv2d_55/Conv2D i1 [255, 1, 1, 120]
00000000: 1104 04ed 0d16 f7fd f3e6 0308 ece1 f852
00000010: fcff f702 21f4 0109 f51c fef5 01f5 fdd4
00000020: 01fb fa13 bc07 32ff f00c f106 e90f 1dd2
00000030: fd20 fc08 fafa f820 ea19 fb12 0004 f3fb
00000040: 0ffc 000b f914 f144 c9f7 1f02 3407 fcdd
00000050: 11e9 f62c 06ff ff00 08fc fe9f fc81 0b05
00000060: 0d93 2d04 1f1d 0401 439b 0f0b 1ce8 e515
00000070: 4bf0 25e5 18ff ff01 3020 20e2 f4ca 02fb
00000080: f4c9 fc12 07de ff1e ef16 fbc8 2c11 1408
00000090: 08c8 04f8 f202 31df 0603 d6e9 b9e5 2e0f
000000a0: 3cfe 7211 dd22 07e6 fff4 0010 0ee6 f322
000000b0: e5f3 01c9 7fed ce27 1104 25c6 1606 1041
000000c0: 7ba9 2423 add5 fdf6 01f8 fdd5 060c 04f0
000000d0: 040c 0ef8 0647 23ee f1e2 46e6 e5f2 f1fb
000000e0: f502 f9f8 d811 0e0d fd06 abe4 ca06 fffd
000000f0: eaf2 f609 032c f202 14fa 00db 3a0f 0a01
17 4 4 -19 13 22 -9 -3
-13 -26 3 8 -20 -31 -8 82
-4 -1 -9 2 33 -12 1 9
-11 28 -2 -11 1 -11 -3 -44
1 -5 -6 19 -68 7 50 -1
-16 12 -15 6 -23 15 29 -46
-3 32 -4 8 -6 -6 -8 32
-22 25 -5 18 0 4 -13 -5
15 -4 0 11 -7 20 -15 68
-55 -9 31 2 52 7 -4 -35
17 -23 -10 44 6 -1 -1 0
8 -4 -2 -97 -4 -127 11 5
13 -109 45 4 31 29 4 1
67 -101 15 11 28 -24 -27 21
75 -16 37 -27 24 -1 -1 1
48 32 32 -30 -12 -54 2 -5
-12 -55 -4 18 7 -34 -1 30
-17 22 -5 -56 44 17 20 8
8 -56 4 -8 -14 2 49 -33
6 3 -42 -23 -71 -27 46 15
60 -2 114 17 -35 34 7 -26
-1 -12 0 16 14 -26 -13 34
-27 -13 1 -55 127 -19 -50 39
17 4 37 -58 22 6 16 65
123 -87 36 35 -83 -43 -3 -10
1 -8 -3 -43 6 12 4 -16
4 12 14 -8 6 71 35 -18
-15 -30 70 -26 -27 -14 -15 -5
-11 2 -7 -8 -40 17 14 13
-3 6 -85 -28 -54 6 -1 -3
-22 -14 -10 9 3 44 -14 2
20 -6 0 -37 58 15 10 1

model/conv2d_54/Conv2D i1 [120, 1, 1, 120]
00000000: fdfb 04d5 dc02 1808 40fe 14ec f802 bf09
00000010: f6e0 48f2 f401 cffe f923 44cc d2bf 1fea
00000020: f034 fc4b f720 0ded f1f6 f4f0 c9d9 c0f0
00000030: ef15 1dd0 e7ce f4f4 e6ca e7cb a300 fe22
00000040: d433 07b8 0d18 c4e7 23f1 ead6 057f c1f2
00000050: 3f2d d7b4 6630 f6e5 18ef 1d11 eef5 91e3
00000060: ed12 0ced e909 3510 fc1b eff8 174a ef17
00000070: 09e1 fa21 fd2e 3f00 1e07 042a 15cd 0330
00000080: 3cdc f9fb 41e6 b20e f2a6 d2d4 2cea fe0f
00000090: f11c d70a 2ab8 224b 06ea 3738 0044 ab31
000000a0: 49a7 09f0 e72f 2006 2f0f 471c 0224 30fe
000000b0: 4ad3 f5f4 4ff0 4bb8 e6fc fefe f6e5 a7c4
000000c0: 1906 1606 2381 9cc7 311e 8c83 0e08 f035
000000d0: b43e c244 24df 2c1b 13f6 00f5 36e2 fd9d
000000e0: fd18 c2cf d4ea f00e 29c9 326d 47ce 17f6
000000f0: e7b7 38f5 2260 bd81 07d9 25e2 0120 48f3
-3 -5 4 -43 -36 2 24 8
64 -2 20 -20 -8 2 -65 9
-10 -32 72 -14 -12 1 -49 -2
-7 35 68 -52 -46 -65 31 -22
-16 52 -4 75 -9 32 13 -19
-15 -10 -12 -16 -55 -39 -64 -16
-17 21 29 -48 -25 -50 -12 -12
-26 -54 -25 -53 -93 0 -2 34
-44 51 7 -72 13 24 -60 -25
35 -15 -22 -42 5 127 -63 -14
63 45 -41 -76 102 48 -10 -27
24 -17 29 17 -18 -11 -111 -29
-19 18 12 -19 -23 9 53 16
-4 27 -17 -8 23 74 -17 23
9 -31 -6 33 -3 46 63 0
30 7 4 42 21 -51 3 48
60 -36 -7 -5 65 -26 -78 14
-14 -90 -46 -44 44 -22 -2 15
-15 28 -41 10 42 -72 34 75
6 -22 55 56 0 68 -85 49
73 -89 9 -16 -25 47 32 6
47 15 71 28 2 36 48 -2
74 -45 -11 -12 79 -16 75 -72
-26 -4 -2 -2 -10 -27 -89 -60
25 6 22 6 35 -127 -100 -57
49 30 -116 -125 14 8 -16 53
-76 62 -62 68 36 -33 44 27
19 -10 0 -11 54 -30 -3 -99
-3 24 -62 -49 -44 -22 -16 14
41 -55 50 109 71 -50 23 -10
-25 -73 56 -11 34 96 -67 -127
7 -39 37 -30 1 32 72 -13

model/batch_normalization_80/FusedBatchNormV3;model/depthwise_conv2d_27/depthwise;model/conv2d_54/Conv2D i1 [1, 5, 5, 120]
00000000: e802 01f8 f005 06ff 05fc 16fb fcfb fafc
00000010: f7fd 04ef f800 01fc fc01 fefa 04f3 f800
00000020: f803 fa11 09ee fe02 01f7 04f3 0100 fe01
00000030: 01fd 02fd fe02 01f9 f700 ff02 0102 fe03
00000040: 06f5 ff06 0d1e fe01 fe09 fffc 03fa 0002
00000050: 01ff ff00 fd10 fff9 0105 06fe fcfd 00fb
00000060: 01fa 02ff 00fd fffd 03fc 04ff 1cff 03fd
00000070: fe04 fcfb 03fc ffff e403 fef3 f701 fa00
00000080: fffc 1602 0101 0efd 0b03 08ec 020c 02fe
00000090: 0003 00fe 0702 02fc e900 fd21 06f5 f90d
000000a0: fef3 1efe 2100 00fb 0804 07fd 01fd 0aef
000000b0: fff6 0002 07f9 03f7 1bfe 010c 1522 fa06
000000c0: 0011 fefa 02fc 0101 0503 00ff 0100 f6fc
000000d0: 00fe 0902 f9fc f909 00e4 07fb 0c03 01fc
000000e0: fcf7 0406 fdf8 01f2 0e07 f7f9 0704 fef9
000000f0: 1bfb 1d03 08f8 fe00 04cb 080b fafa 0edf
-24 2 1 -8 -16 5 6 -1
5 -4 22 -5 -4 -5 -6 -4
-9 -3 4 -17 -8 0 1 -4
-4 1 -2 -6 4 -13 -8 0
-8 3 -6 17 9 -18 -2 2
1 -9 4 -13 1 0 -2 1
1 -3 2 -3 -2 2 1 -7
-9 0 -1 2 1 2 -2 3
6 -11 -1 6 13 30 -2 1
-2 9 -1 -4 3 -6 0 2
1 -1 -1 0 -3 16 -1 -7
1 5 6 -2 -4 -3 0 -5
1 -6 2 -1 0 -3 -1 -3
3 -4 4 -1 28 -1 3 -3
-2 4 -4 -5 3 -4 -1 -1
-28 3 -2 -13 -9 1 -6 0
-1 -4 22 2 1 1 14 -3
11 3 8 -20 2 12 2 -2
0 3 0 -2 7 2 2 -4
-23 0 -3 33 6 -11 -7 13
-2 -13 30 -2 33 0 0 -5
8 4 7 -3 1 -3 10 -17
-1 -10 0 2 7 -7 3 -9
27 -2 1 12 21 34 -6 6
0 17 -2 -6 2 -4 1 1
5 3 0 -1 1 0 -10 -4
0 -2 9 2 -7 -4 -7 9
0 -28 7 -5 12 3 1 -4
-4 -9 4 6 -3 -8 1 -14
14 7 -9 -7 7 4 -2 -7
27 -5 29 3 8 -8 -2 0
4 -53 8 11 -6 -6 14 -33

model/conv2d_53/Conv2D i1 [120, 1, 1, 120]
00000000: 4a06 f7f3 2a0b 2107 c2fc 0ae7 1e3d 2a34
00000010: 26d3 66ed 11f7 3bd0 eaf0 f604 0f15 cd14
00000020: 7fef f218 1101 5600 b204 5436 3ffc 1015
00000030: 13fb 2e1a 34f0 0737 f1ee fd8c 08f7 1703
00000040: 0be8 ed44 40ad 0502 1e19 f8af c2f2 e23d
00000050: 153f 0be3 e712 321e e40b eb81 dd06 0904
00000060: e5f2 f01b 0313 09ba 0107 c3d1 ddf1 e2d6
00000070: ea04 ddf4 c044 c602 fbdc ebe2 f316 0020
00000080: e2da 1b24 1ffc 24e4 00d9 f6f1 3a08 da04
00000090: 0e01 dde6 0bbb 1500 132c ffeb 1bf9 fe1f
000000a0: feef fb01 0e05 11e1 f1b3 01fe df11 13e5
000000b0: 1b0b 14ec 18e9 feee fd10 accb 180d 05ed
000000c0: edf3 ff07 f90b f0d0 e811 f503 cce6 fadf
000000d0: 0223 e600 d405 01e2 14f7 e204 81e4 cdf9
000000e0: cbf9 0621 fdea f1fa d7f5 b80d 08eb 0504
000000f0: 0adf f610 e207 d4e4 d3f5 ce0a e9fe def2
74 6 -9 -13 42 11 33 7
-62 -4 10 -25 30 61 42 52
38 -45 102 -19 17 -9 59 -48
-22 -16 -10 4 15 21 -51 20
127 -17 -14 24 17 1 86 0
-78 4 84 54 63 -4 16 21
19 -5 46 26 52 -16 7 55
-15 -18 -3 -116 8 -9 23 3
11 -24 -19 68 64 -83 5 2
30 25 -8 -81 -62 -14 -30 61
21 63 11 -29 -25 18 50 30
-28 11 -21 -127 -35 6 9 4
-27 -14 -16 27 3 19 9 -70
1 7 -61 -47 -35 -15 -30 -42
-22 4 -35 -12 -64 68 -58 2
-5 -36 -21 -30 -13 22 0 32
-30 -38 27 36 31 -4 36 -28
0 -39 -10 -15 58 8 -38 4
14 1 -35 -26 11 -69 21 0
19 44 -1 -21 27 -7 -2 31
-2 -17 -5 1 14 5 17 -31
-15 -77 1 -2 -33 17 19 -27
27 11 20 -20 24 -23 -2 -18
-3 16 -84 -53 24 13 5 -19
-19 -13 -1 7 -7 11 -16 -48
-24 17 -11 3 -52 -26 -6 -33
2 35 -26 0 -44 5 1 -30
20 -9 -30 4 -127 -28 -51 -7
-53 -7 6 33 -3 -22 -15 -6
-41 -11 -72 13 8 -21 5 4
10 -33 -10 16 -30 7 -44 -28
-45 -11 -50 10 -23 -2 -34 -14

model/batch_normalization_78/FusedBatchNormV3;model/depthwise_conv2d_26/depthwise;model/conv2d_54/Conv2D i1 [1, 5, 5, 120]
00000000: 46e8 12f0 c92c 10e3 0903 da04 fc08 26df
00000010: e0ce e704 3ac2 9e07 96ef f100 a5b8 e3cc
00000020: 81b2 03d1 96d0 1d0e e9a3 f5ee 03ec e3fb
00000030: e103 ade8 2fc3 e40b d2f5 d4f1 1fff bffc
00000040: 117f c5f2 0f12 2afd 4ae6 1ce3 f39b 01a3
00000050: 97c2 b30d e10f e9e8 a22d e3d3 c303 f7a1
00000060: 0000 02fd 0103 0102 0102 00ff 02ff fd00
00000070: 0100 ffff 0101 0403 fff4 f427 e6e9 03fe
00000080: e620 4011 e8ac 00f6 0520 fd10 0cc4 2c05
00000090: 09f3 09f9 ebcf 30d9 15f7 f375 10fc f2ee
000000a0: 2fc9 0209 ebf2 04f4 19cf 1ddb f3c2 e905
000000b0: da26 ebf0 a008 31fb d2ed f2fe 0c1d d8f8
000000c0: 131c d011 15fe d3ae 3cbb fdd8 e820 1af9
000000d0: f905 e509 e720 14ff ff06 f906 0501 fafc
000000e0: fd0a fd00 03f6 0a02 0601 fafc fef9 fa01
000000f0: ba81 2bb7 df22 fea4 cc9f 5ebe ecf3 81e4
70 -24 18 -16 -55 44 16 -29
9 3 -38 4 -4 8 38 -33
-32 -50 -25 4 58 -62 -98 7
-106 -17 -15 0 -91 -72 -29 -52
-127 -78 3 -47 -106 -48 29 14
-23 -93 -11 -18 3 -20 -29 -5
-31 3 -83 -24 47 -61 -28 11
-46 -11 -44 -15 31 -1 -65 -4
17 127 -59 -14 15 18 42 -3
74 -26 28 -29 -13 -101 1 -93
-105 -62 -77 13 -31 15 -23 -24
-94 45 -29 -45 -61 3 -9 -95
0 0 2 -3 1 3 1 2
1 2 0 -1 2 -1 -3 0
1 0 -1 -1 1 1 4 3
-1 -12 -12 39 -26 -23 3 -2
-26 32 64 17 -24 -84 0 -10
5 32 -3 16 12 -60 44 5
9 -13 9 -7 -21 -49 48 -39
21 -9 -13 117 16 -4 -14 -18
47 -55 2 9 -21 -14 4 -12
25 -49 29 -37 -13 -62 -23 5
-38 38 -21 -16 -96 8 49 -5
-46 -19 -14 -2 12 29 -40 -8
19 28 -48 17 21 -2 -45 -82
60 -69 -3 -40 -24 32 26 -7
-7 5 -27 9 -25 32 20 -1
-1 6 -7 6 5 1 -6 -4
-3 10 -3 0 3 -10 10 2
6 1 -6 -4 -2 -7 -6 1
-70 -127 43 -73 -33 34 -2 -92
-52 -97 94 -66 -20 -13 -127 -28

model/conv2d_52/Conv2D i1 [255, 1, 1, 96]
00000000: d257 35f0 d5fd e4ea e8b1 e74c 1dfc fa02
00000010: 3803 0135 0f15 13cc 1961 1af9 dcf3 ce15
00000020: dfe6 2327 67f4 dc16 1016 c0fa 3005 f4e3
00000030: fe07 e522 0a16 2ac4 1dfc d90e 02da fcb2
00000040: 0919 7f0c 1109 01ec d7d5 283b 1c3c e5a5
00000050: e62a fff7 13d7 8dbc e6ca e62b c023 e1ca
00000060: ce3b cffb ff14 170b 0668 3c93 e1eb 24f8
00000070: 7dfe 18e1 e464 0c57 ed13 94af cb24 2618
00000080: d00d f730 06ff cceb 33eb c936 1363 ecec
00000090: 6ae0 21ff af69 eab9 f7f5 1b2b 16da ead4
000000a0: 4ccf ecf9 f5fa 0803 2b02 7f4d d71a 0345
000000b0: 4915 fffe 1fdb 48c7 e9dd b6e9 060c b9bf
000000c0: f3e1 11e3 dcee 14bc f0bd f6a3 dd1a db08
000000d0: 4e1b 1eec 1704 08e2 cafd e122 4fc4 2122
000000e0: fbe4 41c0 3efd 3f08 f61c 0e19 2af7 00f7
000000f0: ec0e f9f2 23e0 c6e4 1009 dfff 1552 c2f4
-46 87 53 -16 -43 -3 -28 -22
-24 -79 -25 76 29 -4 -6 2
56 3 1 53 15 21 19 -52
25 97 26 -7 -36 -13 -50 21
-33 -26 35 39 103 -12 -36 22
16 22 -64 -6 48 5 -12 -29
-2 7 -27 34 10 22 42 -60
29 -4 -39 14 2 -38 -4 -78
9 25 127 12 17 9 1 -20
-41 -43 40 59 28 60 -27 -91
-26 42 -1 -9 19 -41 -115 -68
-26 -54 -26 43 -64 35 -31 -54
-50 59 -49 -5 -1 20 23 11
6 104 60 -109 -31 -21 36 -8
125 -2 24 -31 -28 100 12 87
-19 19 -108 -81 -53 36 38 24
-48 13 -9 48 6 -1 -52 -21
51 -21 -55 54 19 99 -20 -20
106 -32 33 -1 -81 105 -22 -71
-9 -11 27 43 22 -38 -22 -44
76 -49 -20 -7 -11 -6 8 3
43 2 127 77 -41 26 3 69
73 21 -1 -2 31 -37 72 -57
-23 -35 -74 -23 6 12 -71 -65
-13 -31 17 -29 -36 -18 20 -68
-16 -67 -10 -93 -35 26 -37 8
78 27 30 -20 23 4 8 -30
-54 -3 -31 34 79 -60 33 34
-5 -28 65 -64 62 -3 63 8
-10 28 14 25 42 -9 0 -9
-20 14 -7 -14 35 -32 -58 -28
16 9 -33 -1 21 82 -62 -12

model/conv2d_51/Conv2D i1 [96, 1, 1, 96]
00000000: 1f1a e219 e1e5 35e3 10ec 1a2f ebe4 0910
00000010: 0500 b1dc 2404 df0d f5fb 2fbc 2a03 dbfa
00000020: f0cc e7fc fef3 1532 fb39 d73f a928 1a4c
00000030: ac93 c4ca 0c0b 0ef9 1ef3 f8f7 d7fc 2a37
00000040: f381 c301 4a34 da1d 2600 11de 2758 3346
00000050: 0d27 e5ce 9cf7 e92a b319 22e1 f209 fbfe
00000060: c6bc 0e91 f91f d3d2 c233 2d41 12d0 efee
00000070: bdfc 1b28 f8c1 1be2 e286 1e52 7236 2b4d
00000080: 6c04 e901 3e3c 1744 0012 4de2 9b06 e71e
00000090: 27ce 69e5 7f64 0d53 4fd9 3d94 df4f c5a9
000000a0: f6c8 36ae d0e5 deb1 e93d c1a0 fe51 15fc
000000b0: 2fde c034 c4e7 ffe4 43f2 ed0e 1c72 69ea
000000c0: 0dc5 49fa f51c 3ef7 f612 6c08 2ed8 9cc1
000000d0: deef ce29 f251 3ab3 281a 427f fc16 53f8
000000e0: 4fd1 1ab5 e4ef 142f 6d11 f40d 773c 3906
000000f0: 051a de04 2924 1cd6 ff10 21ec 4bfd 0717
31 26 -30 25 -31 -27 53 -29
16 -20 26 47 -21 -28 9 16
5 0 -79 -36 36 4 -33 13
-11 -5 47 -68 42 3 -37 -6
-16 -52 -25 -4 -2 -13 21 50
-5 57 -41 63 -87 40 26 76
-84 -109 -60 -54 12 11 14 -7
30 -13 -8 -9 -41 -4 42 55
-13 -127 -61 1 74 52 -38 29
38 0 17 -34 39 88 51 70
13 39 -27 -50 -100 -9 -23 42
-77 25 34 -31 -14 9 -5 -2
-58 -68 14 -111 -7 31 -45 -46
-62 51 45 65 18 -48 -17 -18
-67 -4 27 40 -8 -63 27 -30
-30 -122 30 82 114 54 43 77
108 4 -23 1 62 60 23 68
0 18 77 -30 -101 6 -25 30
39 -50 105 -27 127 100 13 83
79 -39 61 -108 -33 79 -59 -87
-10 -56 54 -82 -48 -27 -34 -79
-23 61 -63 -96 -2 81 21 -4
47 -34 -64 52 -60 -25 -1 -28
67 -14 -19 14 28 114 105 -22
13 -59 73 -6 -11 28 62 -9
-10 18 108 8 46 -40 -100 -63
-34 -17 -50 41 -14 81 58 -77
40 26 66 127 -4 22 83 -8
79 -47 26 -75 -28 -17 20 47
109 17 -12 13 119 60 57 6
5 26 -34 4 41 36 28 -42
-1 16 33 -20 75 -3 7 23

model/batch_normalization_76/FusedBatchNormV3;model/depthwise_conv2d_25/depthwise;model/conv2d_51/Conv2D i1 [1, 5, 5, 96]
00000000: fd01 f2fc 0402 fef1 fd02 fde4 eef9 ef04
00000010: 010a 0402 fa04 17fa 0d01 00ee 0202 fdf4
00000020: 01fd f8fb f7fe 0404 0cf9 1200 0802 03fb
00000030: 0ef9 fc0c 01fd fdf4 100d 06fa ff03 04fb
00000040: faff 07fc 02fc fff8 fe08 0409 f7fc fd17
00000050: fcfd 0209 1002 feff ed04 fe02 0a01 1fd3
00000060: fdfe f7f7 05f6 05e2 f701 00ea f4fa f802
00000070: 0732 fde8 0502 1dfb 0c0a faec 0404 0420
00000080: f7fe f6fe e500 fe05 07f2 dcfe f6fd 0007
00000090: 03fd fbeb fa01 01ef 15fe 2002 fd0a 01fa
000000a0: e000 0405 020a 06e5 0c00 0003 05f1 fafa
000000b0: f4fd fae0 fa02 0003 d8f7 f105 0102 f1ed
000000c0: edf2 e301 d70b faee 00ef 0491 d017 0712
000000d0: 010e 12e4 f709 2306 f514 02e0 f7f6 0073
000000e0: ff03 ff05 7ffe 0cff 0eed e309 f407 e8f9
000000f0: 00dd 060c 07fe 0402 03f4 fb07 0201 f2fa
-3 1 -14 -4 4 2 -2 -15
-3 2 -3 -28 -18 -7 -17 4
1 10 4 2 -6 4 23 -6
13 1 0 -18 2 2 -3 -12
1 -3 -8 -5 -9 -2 4 4
12 -7 18 0 8 2 3 -5
14 -7 -4 12 1 -3 -3 -12
16 13 6 -6 -1 3 4 -5
-6 -1 7 -4 2 -4 -1 -8
-2 8 4 9 -9 -4 -3 23
-4 -3 2 9 16 2 -2 -1
-19 4 -2 2 10 1 31 -45
-3 -2 -9 -9 5 -10 5 -30
-9 1 0 -22 -12 -6 -8 2
7 50 -3 -24 5 2 29 -5
12 10 -6 -20 4 4 4 32
-9 -2 -10 -2 -27 0 -2 5
7 -14 -36 -2 -10 -3 0 7
3 -3 -5 -21 -6 1 1 -17
21 -2 32 2 -3 10 1 -6
-32 0 4 5 2 10 6 -27
12 0 0 3 5 -15 -6 -6
-12 -3 -6 -32 -6 2 0 3
-40 -9 -15 5 1 2 -15 -19
-19 -14 -29 1 -41 11 -6 -18
0 -17 4 -111 -48 23 7 18
1 14 18 -28 -9 9 35 6
-11 20 2 -32 -9 -10 0 115
-1 3 -1 5 127 -2 12 -1
14 -19 -29 9 -12 7 -24 -7
0 -35 6 12 7 -2 4 2
3 -12 -5 7 2 1 -14 -6

model/conv2d_50/Conv2D i1 [96, 1, 1, 96]
00000000: f486 47dc 0121 c642 43ea 1d03 250b 33cb
00000010: 0259 e013 041d feec d42a f17f fc07 2126
00000020: bd16 0611 24dd 3ee2 f510 16c4 2322 f7f4
00000030: f612 d373 ea2a 1bcb f9dd 3006 df04 db13
00000040: fc01 bceb fddd f910 21fc f6ee fe22 0727
00000050: dd12 b21b cdf5 4017 dc3c 03d2 1f26 f44b
00000060: 0804 f900 ef08 00fa 080a fb04 fb21 07fe
00000070: 0efb f207 fc0e 03eb 0306 f502 fbfc f5ee
00000080: e5ec ff08 020c 01f6 e5f9 ffff f702 0503
00000090: fb00 09f6 00fc 02fd 00f8 f813 f806 00fa
000000a0: f4f2 fbfd f7f1 fd0d fbf3 0c81 01fa f8ef
000000b0: fbfb f7f7 f902 02fb 0d05 f8f8 faf6 01f6
000000c0: 03f8 23cf 2217 16fd 05e7 12f2 e9e8 f0ed
000000d0: 0016 ce39 ea02 5214 dae8 fdfc df0b f91d
000000e0: e8d9 fc19 43fc 35f6 2005 fe3f f7d8 0003
000000f0: bffb ec99 0628 220e 1405 3006 380a 0539
-12 -122 71 -36 1 33 -58 66
67 -22 29 3 37 11 51 -53
2 89 -32 19 4 29 -2 -20
-44 42 -15 127 -4 7 33 38
-67 22 6 17 36 -35 62 -30
-11 16 22 -60 35 34 -9 -12
-10 18 -45 115 -22 42 27 -53
-7 -35 48 6 -33 4 -37 19
-4 1 -68 -21 -3 -35 -7 16
33 -4 -10 -18 -2 34 7 39
-35 18 -78 27 -51 -11 64 23
-36 60 3 -46 31 38 -12 75
8 4 -7 0 -17 8 0 -6
8 10 -5 4 -5 33 7 -2
14 -5 -14 7 -4 14 3 -21
3 6 -11 2 -5 -4 -11 -18
-27 -20 -1 8 2 12 1 -10
-27 -7 -1 -1 -9 2 5 3
-5 0 9 -10 0 -4 2 -3
0 -8 -8 19 -8 6 0 -6
-12 -14 -5 -3 -9 -15 -3 13
-5 -13 12 -127 1 -6 -8 -17
-5 -5 -9 -9 -7 2 2 -5
13 5 -8 -8 -6 -10 1 -10
3 -8 35 -49 34 23 22 -3
5 -25 18 -14 -23 -24 -16 -19
0 22 -50 57 -22 2 82 20
-38 -24 -3 -4 -33 11 -7 29
-24 -39 -4 25 67 -4 53 -10
32 5 -2 63 -9 -40 0 3
-65 -5 -20 -103 6 40 34 14
20 5 48 6 56 10 5 57

model/batch_normalization_74/FusedBatchNormV3;model/depthwise_conv2d_24/depthwise;model/conv2d_51/Conv2D i1 [1, 5, 5, 96]
00000000: 00f4 faf3 1dd8 fe00 fddf ff81 0003 0105
00000010: dceb 03ff e7f5 2802 a40e 0303 3c14 f60e
00000020: fe0a 5103 c6be fd01 ff0c 0101 faf5 1415
00000030: 1b0a 0404 01ef 0b01 c8ff 2003 1200 c1fc
00000040: eef8 05ff 03ff fb00 0207 e800 f10e 0008
00000050: e01a d4fc fcfe e6fd 0305 fae9 0b13 f7f5
00000060: 080e f3f8 0b0f fefe 0226 fefe 0302 22ef
00000070: f204 0406 2afe ff00 2c13 f80a f1eb e303
00000080: f0f3 0701 0e0b 0307 efd6 0409 0a10 0e09
00000090: f509 fdfd 03fa ff05 cbed 04ec 02fb 1203
000000a0: 030a fa03 06f6 0507 fa07 dc13 0af5 03f1
000000b0: 1b35 0212 0408 f300 f705 0bd7 00f1 fef1
000000c0: f9f4 f5f6 dbc7 04e2 f3ea 08ef fe01 1911
000000d0: e9dd eafb 3908 af03 ca0b 03fd be19 cec5
000000e0: 0313 f506 df1c fcf4 d5a5 ff0b fbd5 122c
000000f0: 2cef f319 f800 ff01 f00f dcd5 d30b e6f4
0 -12 -6 -13 29 -40 -2 0
-3 -33 -1 -127 0 3 1 5
-36 -21 3 -1 -25 -11 40 2
-92 14 3 3 60 20 -10 14
-2 10 81 3 -58 -66 -3 1
-1 12 1 1 -6 -11 20 21
27 10 4 4 1 -17 11 1
-56 -1 32 3 18 0 -63 -4
-18 -8 5 -1 3 -1 -5 0
2 7 -24 0 -15 14 0 8
-32 26 -44 -4 -4 -2 -26 -3
3 5 -6 -23 11 19 -9 -11
8 14 -13 -8 11 15 -2 -2
2 38 -2 -2 3 2 34 -17
-14 4 4 6 42 -2 -1 0
44 19 -8 10 -15 -21 -29 3
-16 -13 7 1 14 11 3 7
-17 -42 4 9 10 16 14 9
-11 9 -3 -3 3 -6 -1 5
-53 -19 4 -20 2 -5 18 3
3 10 -6 3 6 -10 5 7
-6 7 -36 19 10 -11 3 -15
27 53 2 18 4 8 -13 0
-9 5 11 -41 0 -15 -2 -15
-7 -12 -11 -10 -37 -57 4 -30
-13 -22 8 -17 -2 1 25 17
-23 -35 -22 -5 57 8 -81 3
-54 11 3 -3 -66 25 -50 -59
3 19 -11 6 -33 28 -4 -12
-43 -91 -1 11 -5 -43 18 44
44 -17 -13 25 -8 0 -1 1
-16 15 -36 -43 -45 11 -26 -12

model/conv2d_49/Conv2D i1 [96, 1, 1, 192]
00000000: fdfe f500 0005 05ff f200 fd00 fc04 fdfd
00000010: 09f6 0105 04ff fa0d 0d04 08fd fdfb 04fe
00000020: fffb fefd fa04 05fc f900 05fd 02fb 08fa
00000030: 07fc fc02 020a 03fd fe00 01ff 0001 fd05
00000040: ffff fb09 fb02 0700 07fe fafd 0305 0a01
00000050: 00fe 0603 0204 03fe fffe ff01 fe01 03ff
00000060: 0706 0001 ff0e 0507 f902 0104 fefc 0cfc
00000070: 0601 01fe 01f6 1003 fd0b 2209 0508 0103
00000080: 0406 060c 07fb 0207 03fe 0104 0106 0400
00000090: 0301 f40e 0f10 ee0a f501 f626 0201 f706
000000a0: f7ff eff1 03ea 1106 0fce 7f07 fde1 29f5
000000b0: 0d0f ed14 10f5 090b 0612 f9f9 0b14 f6f6
000000c0: f414 fae5 2708 f602 0f05 f6ff 2012 0310
000000d0: e3fe e401 0bff defd f9fa 0007 ee22 11dc
000000e0: fe2c f8bc ff2b f00f f4f3 17fa e1e0 1de9
000000f0: 0df6 f101 e4db 0bfb 09fd 0f0b feed fe10
-3 -2 -11 0 0 5 5 -1
-14 0 -3 0 -4 4 -3 -3
9 -10 1 5 4 -1 -6 13
13 4 8 -3 -3 -5 4 -2
-1 -5 -2 -3 -6 4 5 -4
-7 0 5 -3 2 -5 8 -6
7 -4 -4 2 2 10 3 -3
-2 0 1 -1 0 1 -3 5
-1 -1 -5 9 -5 2 7 0
7 -2 -6 -3 3 5 10 1
0 -2 6 3 2 4 3 -2
-1 -2 -1 1 -2 1 3 -1
7 6 0 1 -1 14 5 7
-7 2 1 4 -2 -4 12 -4
6 1 1 -2 1 -10 16 3
-3 11 34 9 5 8 1 3
4 6 6 12 7 -5 2 7
3 -2 1 4 1 6 4 0
3 1 -12 14 15 16 -18 10
-11 1 -10 38 2 1 -9 6
-9 -1 -17 -15 3 -22 17 6
15 -50 127 7 -3 -31 41 -11
13 15 -19 20 16 -11 9 11
6 18 -7 -7 11 20 -10 -10
-12 20 -6 -27 39 8 -10 2
15 5 -10 -1 32 18 3 16
-29 -2 -28 1 11 -1 -34 -3
-7 -6 0 7 -18 34 17 -36
-2 44 -8 -68 -1 43 -16 15
-12 -13 23 -6 -31 -32 29 -23
13 -10 -15 1 -28 -37 11 -5
9 -3 15 11 -2 -19 -2 16

model/conv2d_48/Conv2D i1 [48, 1, 1, 224]
00000000: 01fb c603 cdf9 09f9 0000 1e1a 1539 0cfe
00000010: df03 b1fb 2efa c50c 0101 041d c7f4 e500
00000020: ea15 0d03 d635 f3d7 0518 0631 f0ef e606
00000030: f711 0029 06fd f9d8 f6f5 2bb9 ed0d e214
00000040: 3614 00fb d8e6 17da 2f16 3020 0e19 ec16
00000050: e3fe 2700 d902 0003 03f1 ebc9 0311 0ada
00000060: 1afa dee6 0c07 230e 0f0e f8f7 0dbc e6fd
00000070: e902 fbe2 ede0 1cd5 0742 fae2 18d9 fdfa
00000080: dc13 1f11 3416 eb21 002e 3505 d7f6 ccea
00000090: 01e8 f817 08c1 31c1 2122 eaeb 0f1f d7f4
000000a0: 22fd 0504 c251 0d55 2137 00db 0feb ded9
000000b0: e90a 11f7 fdb4 f426 daef f3fb f1f6 fde1
000000c0: 09e5 0827 22f8 db01 46f1 2419 f402 def0
000000d0: ef2b 2e07 2405 fe03 daff dd1f fffc 0b7f
000000e0: c8dc 2606 c81b fff3 e22c 362f 3d0f 25db
000000f0: e201 400a 0409 1df5 f7fb 1f9d ecec 43e0
1 -5 -58 3 -51 -7 9 -7
0 0 30 26 21 57 12 -2
-33 3 -79 -5 46 -6 -59 12
1 1 4 29 -57 -12 -27 0
-22 21 13 3 -42 53 -13 -41
5 24 6 49 -16 -17 -26 6
-9 17 0 41 6 -3 -7 -40
-10 -11 43 -71 -19 13 -30 20
54 20 0 -5 -40 -26 23 -38
47 22 48 32 14 25 -20 22
-29 -2 39 0 -39 2 0 3
3 -15 -21 -55 3 17 10 -38
26 -6 -34 -26 12 7 35 14
15 14 -8 -9 13 -68 -26 -3
-23 2 -5 -30 -19 -32 28 -43
7 66 -6 -30 24 -39 -3 -6
-36 19 31 17 52 22 -21 33
0 46 53 5 -41 -10 -52 -22
1 -24 -8 23 8 -63 49 -63
33 34 -22 -21 15 31 -41 -12
34 -3 5 4 -62 81 13 85
33 55 0 -37 15 -21 -34 -39
-23 10 17 -9 -3 -76 -12 38
-38 -17 -13 -5 -15 -10 -3 -31
9 -27 8 39 34 -8 -37 1
70 -15 36 25 -12 2 -34 -16
-17 43 46 7 36 5 -2 3
-38 -1 -35 31 -1 -4 11 127
-56 -36 38 6 -56 27 -1 -13
-30 44 54 47 61 15 37 -37
-30 1 64 10 4 9 29 -11
-9 -5 31 -99 -20 -20 67 -32

model/batch_normalization_71/FusedBatchNormV3;model/depthwise_conv2d_23/depthwise i1 [1, 3, 3, 224]
00000000: f825 fe3d 1812 7b28 2d3b f5b3 4d0e e1fa
00000010: cc34 1203 2d81 087f 33af e12a d621 35f5
00000020: 94f5 3bb9 953f fa1e fb06 6c6e 1781 1f06
00000030: 5d02 6fc3 0b1f 0ac8 7f25 12fc 4609 1618
00000040: 2df7 2f14 5c4c f439 f6f7 341d 7f01 faea
00000050: 30aa df08 5703 f4de 460d 3724 380c c8b0
00000060: 11f6 139f 970b 1c69 d6e9 fb12 1c25 65a7
00000070: 7fdc 6c3e da3c 117f 570f 2407 2e2e 16de
00000080: 7e39 d504 04e5 0a0c 631c 1aef 4de0 0edf
00000090: ccf9 2676 7b7f 6b1a 50e1 7f34 3a8e 3b0a
000000a0: 10f5 2802 153a 164c 8906 4066 f8f5 2487
000000b0: 938f 562b 0b4c 16d7 230e 670f ed7f f9fe
000000c0: f338 29d7 a70d 3410 0828 1624 131a 0052
000000d0: 097f 6e25 2cfb dd66 0b01 1502 26fb c97f
000000e0: 267f e553 7fce 24f0 7e4a 4105 2314 6428
000000f0: f3fa 6455 2222 15c1 7fdd c273 9459 7f28
-8 37 -2 61 24 18 123 40
45 59 -11 -77 77 14 -31 -6
-52 52 18 3 45 -127 8 127
51 -81 -31 42 -42 33 53 -11
-108 -11 59 -71 -107 63 -6 30
-5 6 108 110 23 -127 31 6
93 2 111 -61 11 31 10 -56
127 37 18 -4 70 9 22 24
45 -9 47 20 92 76 -12 57
-10 -9 52 29 127 1 -6 -22
48 -86 -33 8 87 3 -12 -34
70 13 55 36 56 12 -56 -80
17 -10 19 -97 -105 11 28 105
-42 -23 -5 18 28 37 101 -89
127 -36 108 62 -38 60 17 127
87 15 36 7 46 46 22 -34
126 57 -43 4 4 -27 10 12
99 28 26 -17 77 -32 14 -33
-52 -7 38 118 123 127 107 26
80 -31 127 52 58 -114 59 10
16 -11 40 2 21 58 22 76
-119 6 64 102 -8 -11 36 -121
-109 -113 86 43 11 76 22 -41
35 14 103 15 -19 127 -7 -2
-13 56 41 -41 -89 13 52 16
8 40 22 36 19 26 0 82
9 127 110 37 44 -5 -35 102
11 1 21 2 38 -5 -55 127
38 127 -27 83 127 -50 36 -16
126 74 65 5 35 20 100 40
-13 -6 100 85 34 34 21 -63
127 -35 -62 115 -108 89 127 40

model/conv2d_47/Conv2D i1 [224, 1, 1, 48]
00000000: 2f37 e34d 07f8 de1e 43d9 f8d0 f8e2 f47d
00000010: 4e17 4dab ba51 deff 1bd6 7625 1482 0fff
00000020: 11fa 81c2 0117 9511 3dd1 bd12 b5ea 1c14
00000030: 2f4a 41b9 d837 e650 9b30 616b 12ef 261d
00000040: e6ba e4e9 5c52 df6e 9234 393a dbe8 fbfa
00000050: 794a cb05 0a8b 8533 d43f 37af f47f fc09
00000060: 12c4 17b7 1fe4 1afc 214b 29fd d508 da37
00000070: 1dfa f51b e6c8 4cca 0bc5 5722 3243 3c49
00000080: 22e9 b2cf 1e00 e7f9 1a7f 0d24 0e02 1429
00000090: 2011 1d98 333d 3f0f 1cf5 1a06 58e4 1287
000000a0: c7e7 3a10 f770 a7d7 1aed 7f05 ecc9 c40c
000000b0: 40ea 0fd2 d10c 49d3 de1b b7e8 ea07 1e44
000000c0: 0bd7 27fc cd9d 5bf9 eefa 0110 12c9 0efd
000000d0: 062d 4f1b 0923 c6ff bb4f ccfc f27f d31b
000000e0: f8fb edfd e9ef d700 e4e6 1506 100e 01db
000000f0: c50e 66ac e763 01cf 3de0 117f f2fc e918
47 55 -29 77 7 -8 -34 30
67 -39 -8 -48 -8 -30 -12 125
78 23 77 -85 -70 81 -34 -1
27 -42 118 37 20 -126 15 -1
17 -6 -127 -62 1 23 -107 17
61 -47 -67 18 -75 -22 28 20
47 74 65 -71 -40 55 -26 80
-101 48 97 107 18 -17 38 29
-26 -70 -28 -23 92 82 -33 110
-110 52 57 58 -37 -24 -5 -6
121 74 -53 5 10 -117 -123 51
-44 63 55 -81 -12 127 -4 9
18 -60 23 -73 31 -28 26 -4
33 75 41 -3 -43 8 -38 55
29 -6 -11 27 -26 -56 76 -54
11 -59 87 34 50 67 60 73
34 -23 -78 -49 30 0 -25 -7
26 127 13 36 14 2 20 41
32 17 29 -104 51 61 63 15
28 -11 26 6 88 -28 18 -121
-57 -25 58 16 -9 112 -89 -41
26 -19 127 5 -20 -55 -60 12
64 -22 15 -46 -47 12 73 -45
-34 27 -73 -24 -22 7 30 68
11 -41 39 -4 -51 -99 91 -7
-18 -6 1 16 18 -55 14 -3
6 45 79 27 9 35 -58 -1
-69 79 -52 -4 -14 127 -45 27
-8 -5 -19 -3 -23 -17 -41 0
-28 -26 21 6 16 14 1 -37
-59 14 102 -84 -25 99 1 -49
61 -32 17 127 -14 -4 -23 24

model/conv2d_46/Conv2D i1 [48, 1, 1, 224]
00000000: 0040 3ed5 fde0 f317 d904 ee0c 0bd7 e5f9
00000010: 2ae5 ca0e dcef 3d28 19ee ec08 040e c5f2
00000020: 03fe e917 200d f9c1 0509 e52a db1c 7d17
00000030: 191c 1506 f5fb 014a 5002 34e7 e5e8 0321
00000040: 474e f403 1fdf f311 b061 62db d8d3 19ac
00000050: 098b 0119 0a33 f223 fcfe f62b efba 1f2d
00000060: 25ff fb2a 54fd e527 012e e95d c1fa e65b
00000070: 0a1c f0cb 3fc5 49e1 5688 2620 23de 111c
00000080: c7e3 1908 0cd0 1825 5cc8 e517 b99c fb9d
00000090: 1618 d6e1 d8e9 e608 1644 4707 f46a 5bff
000000a0: 0103 492a 280f 17fd e003 2010 283c 3cdf
000000b0: cc20 0a17 81df fe07 d2f5 3ef8 05e0 655a
000000c0: 25dc c0d6 0f29 d87b e2b3 34e3 2c23 16a1
000000d0: 0013 fff7 f949 57f1 f920 2218 ad26 0c1a
000000e0: 0316 0c15 d316 06eb 7fe7 edc5 ff26 11ed
000000f0: 030a 05ff 2ff5 0de4 072b ddf5 f601 2de6
0 64 62 -43 -3 -32 -13 23
-39 4 -18 12 11 -41 -27 -7
42 -27 -54 14 -36 -17 61 40
25 -18 -20 8 4 14 -59 -14
3 -2 -23 23 32 13 -7 -63
5 9 -27 42 -37 28 125 23
25 28 21 6 -11 -5 1 74
80 2 52 -25 -27 -24 3 33
71 78 -12 3 31 -33 -13 17
-80 97 98 -37 -40 -45 25 -84
9 -117 1 25 10 51 -14 35
-4 -2 -10 43 -17 -70 31 45
37 -1 -5 42 84 -3 -27 39
1 46 -23 93 -63 -6 -26 91
10 28 -16 -53 63 -59 73 -31
86 -120 38 32 35 -34 17 28
-57 -29 25 8 12 -48 24 37
92 -56 -27 23 -71 -100 -5 -99
22 24 -42 -31 -40 -23 -26 8
22 68 71 7 -12 106 91 -1
1 3 73 42 40 15 23 -3
-32 3 32 16 40 60 60 -33
-52 32 10 23 -127 -33 -2 7
-46 -11 62 -8 5 -32 101 90
37 -36 -64 -42 15 41 -40 123
-30 -77 52 -29 44 35 22 -95
0 19 -1 -9 -7 73 87 -15
-7 32 34 24 -83 38 12 26
3 22 12 21 -45 22 6 -21
127 -25 -19 -59 -1 38 17 -19
3 10 5 -1 47 -11 13 -28
7 43 -35 -11 -10 1 45 -26

model/batch_normalization_68/FusedBatchNormV3;model/depthwise_conv2d_22/depthwise;model/depthwise_conv2d_23/depthwise i1 [1, 3, 3, 224]
00000000: 1269 433c e357 965c f8ee 0e1d f92d 26b0
00000010: dd07 0f4c d60e d931 fd81 33f4 21ab 432f
00000020: 1f33 373e 6ad2 f640 150b 4f4e 59fa c9fc
00000030: 2323 1585 ea3c 4c38 8108 657b 003a e859
00000040: 7fd7 d6e0 389e 1867 1305 a6cd 210d d40f
00000050: d8c1 6b39 0aff 2c28 faca c75f 7618 aa2d
00000060: e54a 6f25 fcdd fb23 29fc 7c0e 2066 7ac3
00000070: b969 1454 e217 e391 e02c cde2 1fd3 320a
00000080: 40cd 0f15 f3f4 1bb4 f720 4ab8 f715 0241
00000090: a689 08af 5aec dd35 9c53 231f 5350 75e9
000000a0: 0439 3760 fbb0 227f ea6c 0c14 1185 313c
000000b0: 367f f0dd 284b 2243 6a15 23e1 e27f 2321
000000c0: 276a 14f1 eed0 1cfe 3010 172b b507 3a00
000000d0: 39d3 81d5 d3f6 bc81 fee2 300c b939 fb4c
000000e0: 3779 25f1 db00 dd75 e57f 7f7f 117f f495
000000f0: c5cf 63f8 f32b 91fb c1ce fdf4 2309 6b52
18 105 67 60 -29 87 -106 92
-8 -18 14 29 -7 45 38 -80
-35 7 15 76 -42 14 -39 49
-3 -127 51 -12 33 -85 67 47
31 51 55 62 106 -46 -10 64
21 11 79 78 89 -6 -55 -4
35 35 21 -123 -22 60 76 56
-127 8 101 123 0 58 -24 89
127 -41 -42 -32 56 -98 24 103
19 5 -90 -51 33 13 -44 15
-40 -63 107 57 10 -1 44 40
-6 -54 -57 95 118 24 -86 45
-27 74 111 37 -4 -35 -5 35
41 -4 124 14 32 102 122 -61
-71 105 20 84 -30 23 -29 -111
-32 44 -51 -30 31 -45 50 10
64 -51 15 21 -13 -12 27 -76
-9 32 74 -72 -9 21 2 65
-90 -119 8 -81 90 -20 -35 53
-100 83 35 31 83 80 117 -23
4 57 55 96 -5 -80 34 127
-22 108 12 20 17 -123 49 60
54 127 -16 -35 40 75 34 67
106 21 35 -31 -30 127 35 33
39 106 20 -15 -18 -48 28 -2
48 16 23 43 -75 7 58 0
57 -45 -127 -43 -45 -10 -68 -127
-2 -30 48 12 -71 57 -5 76
55 121 37 -15 -37 0 -35 117
-27 127 127 127 17 127 -12 -107
-59 -49 99 -8 -13 43 -111 -5
-63 -50 -3 -12 35 9 107 82

model/conv2d_45/Conv2D i1 [224, 1, 1, 48]
00000000: 09e7 3ffa f4fe f614 13f2 392f bd3d cdd8
00000010: 20fb 19e7 061f d500 f633 f523 d9f5 dbec
00000020: 3003 eee8 190f 13cf e82f 0fea 87da fc81
00000030: e37f 4fe1 9132 1bbf 21ab 0e14 2e32 caaa
00000040: fdcd 290e a235 393f 08fa 2400 5cda b3f5
00000050: b639 1d50 6b56 e9f6 bd14 221f b7f1 0d25
00000060: 2334 2c4a 20cd cc2a 23f7 f8c9 2214 e8d4
00000070: dfec c21a e9fb eba7 5ffb 6081 ec0a 0309
00000080: df38 d720 0b38 b502 1854 fecf 498d fce8
00000090: d2f2 fe3d 5aeb 2ffe 5756 63f0 a52c 0921
000000a0: a4ee 1f4e 93bf 3704 f131 e125 be1b b448
000000b0: a7fd 1fe9 d4aa ddfc edc9 3c37 1b7f 4eef
000000c0: 5a98 2511 1e36 120a aecb e3d6 e94e 2cad
000000d0: f51a ec47 7fba 06bb be28 25e0 3301 c4f8
000000e0: fd1c 4d1b a314 ecd0 1c3d 1ba7 1527 b41c
000000f0: 16e5 1b14 07b7 c57f eae0 0aef e92b 1fdf
9 -25 63 -6 -12 -2 -10 20
19 -14 57 47 -67 61 -51 -40
32 -5 25 -25 6 31 -43 0
-10 51 -11 35 -39 -11 -37 -20
48 3 -18 -24 25 15 19 -49
-24 47 15 -22 -121 -38 -4 -127
-29 127 79 -31 -111 50 27 -65
33 -85 14 20 46 50 -54 -86
-3 -51 41 14 -94 53 57 63
8 -6 36 0 92 -38 -77 -11
-74 57 29 80 107 86 -23 -10
-67 20 34 31 -73 -15 13 37
35 52 44 74 32 -51 -52 42
35 -9 -8 -55 34 20 -24 -44
-33 -20 -62 26 -23 -5 -21 -89
95 -5 96 -127 -20 10 3 9
-33 56 -41 32 11 56 -75 2
24 84 -2 -49 73 -115 -4 -24
-46 -14 -2 61 90 -21 47 -2
87 86 99 -16 -91 44 9 33
-92 -18 31 78 -109 -65 55 4
-15 49 -31 37 -66 27 -76 72
-89 -3 31 -23 -44 -86 -35 -4
-19 -55 60 55 27 127 78 -17
90 -104 37 17 30 54 18 10
-82 -53 -29 -42 -23 78 44 -83
-11 26 -20 71 127 -70 6 -69
-66 40 37 -32 51 1 -60 -8
-3 28 77 27 -93 20 -20 -48
28 61 27 -89 21 39 -76 28
22 -27 27 20 7 -73 -59 127
-22 -32 10 -17 -23 43 31 -33

model/conv2d_44/Conv2D i1 [48, 1, 1, 224]
00000000: 162c 1327 dabf 3d25 ee2d e7a8 20ee 81fd
00000010: e7cc a95e 0118 ea10 0b01 26e3 e426 edf2
00000020: cd0f fe0b d79c 0af8 1302 a70c ebf6 27ca
00000030: 08d7 cf2d eaec d926 273f 2aec 1ef2 1436
00000040: c922 3f2f f4c9 f9c5 fe20 f403 d2fe d8f5
00000050: 2cf1 0fde 1f24 b7cc a8fb 0cf0 da0a 17c9
00000060: bf0b 06f6 14f4 d1d2 f70c dd1d a846 ebf7
00000070: ccd5 cdfb 5fcf 260f 450c 14e2 ebee 010a
00000080: e94f ceba 0c37 30e7 9603 acfa 322e e016
00000090: 0515 2620 bdcc 00f2 064d ecb9 e343 85f3
000000a0: 11d8 cf1a dacc 17c8 1a2e b934 4a2a 40f7
000000b0: 0949 d61a c9dc 4d1f 170a 85ec f5db 31f7
000000c0: 1311 02d2 c92f 24d2 1d0f f32d c1a0 de52
000000d0: e211 3d16 e1ce 5e0c 02bd c524 4df1 0c52
000000e0: da1c 0b0f cbfc bd36 d3d5 0f6a eaf9 44f9
000000f0: 0436 0ed8 5222 04f6 3094 fbf5 f8dd 0808
22 44 19 39 -38 -65 61 37
-18 45 -25 -88 32 -18 -127 -3
-25 -52 -87 94 1 24 -22 16
11 1 38 -29 -28 38 -19 -14
-51 15 -2 11 -41 -100 10 -8
19 2 -89 12 -21 -10 39 -54
8 -41 -49 45 -22 -20 -39 38
39 63 42 -20 30 -14 20 54
-55 34 63 47 -12 -55 -7 -59
-2 32 -12 3 -46 -2 -40 -11
44 -15 15 -34 31 36 -73 -52
-88 -5 12 -16 -38 10 23 -55
-65 11 6 -10 20 -12 -47 -46
-9 12 -35 29 -88 70 -21 -9
-52 -43 -51 -5 95 -49 38 15
69 12 20 -30 -21 -18 1 10
-23 79 -50 -70 12 55 48 -25
-106 3 -84 -6 50 46 -32 22
5 21 38 32 -67 -52 0 -14
6 77 -20 -71 -29 67 -123 -13
17 -40 -49 26 -38 -52 23 -56
26 46 -71 52 74 42 64 -9
9 73 -42 26 -55 -36 77 31
23 10 -123 -20 -11 -37 49 -9
19 17 2 -46 -55 47 36 -46
29 15 -13 45 -63 -96 -34 82
-30 17 61 22 -31 -50 94 12
2 -67 -59 36 77 -15 12 82
-38 28 11 15 -53 -4 -67 54
-45 -43 15 106 -22 -7 68 -7
4 54 14 -40 82 34 4 -10
48 -108 -5 -11 -8 -35 8 8

model/batch_normalization_65/FusedBatchNormV3;model/depthwise_conv2d_21/depthwise;model/depthwise_conv2d_23/depthwise i1 [1, 3, 3, 224]
00000000: 6ba3 2410 1ac5 06b0 f2f7 382a 7d79 311b
00000010: 1fde f31a 0be5 e408 27d9 d88b 7f35 15fd
00000020: 3df1 52ed 6546 10ad 9042 adf8 595a 2e16
00000030: 96df 7fe9 50f9 810e 24fb 311e e67f 0c2b
00000040: d314 25d8 563e 0ae5 7f4a 2837 5ff7 4f7f
00000050: 142e 15cf 61f4 ef4e cce9 ef39 09eb 3c22
00000060: 816d 351c b981 c457 3907 25ea 3c49 0203
00000070: 09f2 4504 1b08 2209 6400 3247 1a2c 0bff
00000080: 113f 2a51 3b09 e73d 3f28 d657 3d2e 1414
00000090: 601d 0d82 1b23 2731 149e 0161 fc23 8b6b
000000a0: 0b30 867f 1be0 35eb 3f3e e899 303a 2ed1
000000b0: 1721 defd fee8 df32 0613 0316 220f 437f
000000c0: 1729 b735 5bd4 d1e7 4d1f cec4 221a 891e
000000d0: 04ca 7f09 5d14 4f36 2c53 59ba a62b 2f7f
000000e0: 7f92 fbfc 7ff6 360b 1b11 014e f47f fe3d
000000f0: 0941 817f 28da e003 4ade fe9a 6722 4b3d
107 -93 36 16 26 -59 6 -80
-14 -9 56 42 125 121 49 27
31 -34 -13 26 11 -27 -28 8
39 -39 -40 -117 127 53 21 -3
61 -15 82 -19 101 70 16 -83
-112 66 -83 -8 89 90 46 22
-106 -33 127 -23 80 -7 -127 14
36 -5 49 30 -26 127 12 43
-45 20 37 -40 86 62 10 -27
127 74 40 55 95 -9 79 127
20 46 21 -49 97 -12 -17 78
-52 -23 -17 57 9 -21 60 34
-127 109 53 28 -71 -127 -60 87
57 7 37 -22 60 73 2 3
9 -14 69 4 27 8 34 9
100 0 50 71 26 44 11 -1
17 63 42 81 59 9 -25 61
63 40 -42 87 61 46 20 20
96 29 13 -126 27 35 39 49
20 -98 1 97 -4 35 -117 107
11 48 -122 127 27 -32 53 -21
63 62 -24 -103 48 58 46 -47
23 33 -34 -3 -2 -24 -33 50
6 19 3 22 34 15 67 127
23 41 -73 53 91 -44 -47 -25
77 31 -50 -60 34 26 -119 30
4 -54 127 9 93 20 79 54
44 83 89 -70 -90 43 47 127
127 -110 -5 -4 127 -10 54 11
27 17 1 78 -12 127 -2 61
9 65 -127 127 40 -38 -32 3
74 -34 -2 -102 103 34 75 61

model/conv2d_43/Conv2D i1 [224, 1, 1, 48]
00000000: bdb2 0b27 14e3 cbcb 082e ffc7 3862 acdd
00000010: e039 08bc b341 0904 61a7 3e13 6a4f f1eb
00000020: 4abe 08e9 2214 81d2 a323 fedc 0e24 ac10
00000030: 34ed cb2a 07fe dc39 033e 4aac 1220 f3d5
00000040: d9bb 36ea d50f e426 080e 01e9 f822 c019
00000050: 09fc 2b3e 0f2a af0a cd11 08e8 13ef 7f40
00000060: c3ee 0d39 1243 b41e 039a cedc fd02 b3ef
00000070: 3410 15ef 7fd7 1bf8 14c6 8c05 4ff2 3dfe
00000080: 3208 6fbf 0740 1f2b fd20 15ec ede0 181b
00000090: 0fcd e019 f890 092f 27bb c2fb 3827 cd0b
000000a0: 3f0d cbe9 a5ee 042f c253 31f1 399c eafd
000000b0: 8132 1d12 21bc 0751 1239 dadf 34e8 eace
000000c0: c5da 0ada ec0d 819a 1ee5 d1e7 5736 dcea
000000d0: f79d 2f11 e70f eff4 fa23 fee9 14a3 11e6
000000e0: e732 afdc ee0f c02b 4cf9 f8c0 c627 33e1
000000f0: 2525 ec2c 5228 de82 3fe3 ff0f d6e6 f74b
-67 -78 11 39 20 -29 -53 -53
8 46 -1 -57 56 98 -84 -35
-32 57 8 -68 -77 65 9 4
97 -89 62 19 106 79 -15 -21
74 -66 8 -23 34 20 -127 -46
-93 35 -2 -36 14 36 -84 16
52 -19 -53 42 7 -2 -36 57
3 62 74 -84 18 32 -13 -43
-39 -69 54 -22 -43 15 -28 38
8 14 1 -23 -8 34 -64 25
9 -4 43 62 15 42 -81 10
-51 17 8 -24 19 -17 127 64
-61 -18 13 57 18 67 -76 30
3 -102 -50 -36 -3 2 -77 -17
52 16 21 -17 127 -41 27 -8
20 -58 -116 5 79 -14 61 -2
50 8 111 -65 7 64 31 43
-3 32 21 -20 -19 -32 24 27
15 -51 -32 25 -8 -112 9 47
39 -69 -62 -5 56 39 -51 11
63 13 -53 -23 -91 -18 4 47
-62 83 49 -15 57 -100 -22 -3
-127 50 29 18 33 -68 7 81
18 57 -38 -33 52 -24 -22 -50
-59 -38 10 -38 -20 13 -127 -102
30 -27 -47 -25 87 54 -36 -22
-9 -99 47 17 -25 15 -17 -12
-6 35 -2 -23 20 -93 17 -26
-25 50 -81 -36 -18 15 -64 43
76 -7 -8 -64 -58 39 51 -31
37 37 -20 44 82 40 -34 -126
63 -29 -1 15 -42 -26 -9 75

model/conv2d_42/Conv2D i1 [48, 1, 1, 224]
00000000: e20c 3b20 08f2 eef5 001c c4ed d523 f92a
00000010: eb1b bfc7 2ef1 ad09 e94f a050 182c acd2
00000020: 24f4 3f21 066d 0be8 fc23 d2b6 c1e6 4009
00000030: c48f 1c10 ca1c e5d8 01c9 a2ee 47d6 7ffd
00000040: 03c5 15e4 46ef cbf3 70f5 b6dd c827 0633
00000050: 0de7 1d32 bbb2 4522 df12 fcf7 b2c0 11e7
00000060: f5d9 c528 fed7 161d 2b1a 3dc7 a103 efe4
00000070: 68e5 21e8 1dd5 0a4d 2b0d b32f 0307 3c18
00000080: 0de7 f1d7 1b9a 55ee 522d 14b8 db02 32b8
00000090: 5bd8 eef9 1a20 fbaf a3cb 4dca 101b 1efb
000000a0: f0fc 4414 e58d 1135 c013 0aa6 4509 b90a
000000b0: 1512 ab36 f5fa 230a ca0a 2ef6 a711 d6d9
000000c0: 1454 30df cf19 3aac f9eb cfee f057 df08
000000d0: e9c4 f437 bc05 5806 f6f3 f733 f403 54ac
000000e0: 4e0b de1a f816 1fe1 0322 0fe7 16d5 d617
000000f0: a3c5 4c51 e4f1 f52a bae5 ce59 0342 3e11
-30 12 59 32 8 -14 -18 -11
0 28 -60 -19 -43 35 -7 42
-21 27 -65 -57 46 -15 -83 9
-23 79 -96 80 24 44 -84 -46
36 -12 63 33 6 109 11 -24
-4 35 -46 -74 -63 -26 64 9
-60 -113 28 16 -54 28 -27 -40
1 -55 -94 -18 71 -42 127 -3
3 -59 21 -28 70 -17 -53 -13
112 -11 -74 -35 -56 39 6 51
13 -25 29 50 -69 -78 69 34
-33 18 -4 -9 -78 -64 17 -25
-11 -39 -59 40 -2 -41 22 29
43 26 61 -57 -95 3 -17 -28
104 -27 33 -24 29 -43 10 77
43 13 -77 47 3 7 60 24
13 -25 -15 -41 27 -102 85 -18
82 45 20 -72 -37 2 50 -72
91 -40 -18 -7 26 32 -5 -81
-93 -53 77 -54 16 27 30 -5
-16 -4 68 20 -27 -115 17 53
-64 19 10 -90 69 9 -71 10
21 18 -85 54 -11 -6 35 10
-54 10 46 -10 -89 17 -42 -39
20 84 48 -33 -49 25 58 -84
-7 -21 -49 -18 -16 87 -33 8
-23 -60 -12 55 -68 5 88 6
-10 -13 -9 51 -12 3 84 -84
78 11 -34 26 -8 22 31 -31
3 34 15 -25 22 -43 -42 23
-93 -59 76 81 -28 -15 -11 42
-70 -27 -50 89 3 66 62 17

model/batch_normalization_62/FusedBatchNormV3;model/depthwise_conv2d_20/depthwise;model/depthwise_conv2d_23/depthwise i1 [1, 3, 3, 224]
00000000: e903 32c5 7f2f f80e 724f 6f0d 3ada 1bb4
00000010: cfa7 c746 f1ab 12a5 3a05 a545 1ce3 cfe2
00000020: aa02 45f6 b632 6a41 db1f f94e 6bc8 46e5
00000030: fb20 eeeb c1c7 a6d4 3032 e4fc e20d 309f
00000040: ce69 1b77 c622 1338 bc1b f267 11d6 033f
00000050: 71c6 d315 ab5c 1b2f 7f21 0922 2c03 fffa
00000060: 0ef3 5aa7 6681 0c13 8f06 2415 7f7f 20a1
00000070: fde9 f347 f42b 1878 5a08 0124 4ce3 d71e
00000080: 01c5 f486 12aa 1865 db2a fb2f 4b2b dd2b
00000090: 213b 957f 3d41 e4a4 2636 2bbd f929 3722
000000a0: 320e f219 1eeb de0b 8114 db3a d8e4 ed7f
000000b0: b5fd 4e82 0d43 2f1b 27d9 2c0f fe05 7a09
000000c0: 1621 143f 4c1d 4bdb 5bf2 317f 8625 6902
000000d0: 313a 1173 eefc b21f 2d50 3478 40d6 1653
000000e0: 13d2 7fa7 3cbf 40ee b31a 7ff7 551a 4cd0
000000f0: e6cf 9a25 11bd 1181 9e81 8136 3b56 a1c0
-23 3 50 -59 127 47 -8 14
114 79 111 13 58 -38 27 -76
-49 -89 -57 70 -15 -85 18 -91
58 5 -91 69 28 -29 -49 -30
-86 2 69 -10 -74 50 106 65
-37 31 -7 78 107 -56 70 -27
-5 32 -18 -21 -63 -57 -90 -44
48 50 -28 -4 -30 13 48 -97
-50 105 27 119 -58 34 19 56
-68 27 -14 103 17 -42 3 63
113 -58 -45 21 -85 92 27 47
127 33 9 34 44 3 -1 -6
14 -13 90 -89 102 -127 12 19
-113 6 36 21 127 127 32 -95
-3 -23 -13 71 -12 43 24 120
90 8 1 36 76 -29 -41 30
1 -59 -12 -122 18 -86 24 101
-37 42 -5 47 75 43 -35 43
33 59 -107 127 61 65 -28 -92
38 54 43 -67 -7 41 55 34
50 14 -14 25 30 -21 -34 11
-127 20 -37 58 -40 -28 -19 127
-75 -3 78 -126 13 67 47 27
39 -39 44 15 -2 5 122 9
22 33 20 63 76 29 75 -37
91 -14 49 127 -122 37 105 2
49 58 17 115 -18 -4 -78 31
45 80 52 120 64 -42 22 83
19 -46 127 -89 60 -65 64 -18
-77 26 127 -9 85 26 76 -48
-26 -49 -102 37 17 -67 17 -127
-98 -127 -127 54 59 86 -95 -64

model/conv2d_41/Conv2D i1 [224, 1, 1, 48]
00000000: 1a18 e3d3 1527 11eb ea40 caf7 2a03 02f4
00000010: 34f5 161d dcfc da54 8133 4429 30c7 ffda
00000020: 37cc 271b 2d1f fa08 d639 fddd 4f19 c703
00000030: 7f23 d7ee e836 bb21 f025 0609 3d04 c905
00000040: 7c0e 14af c332 5730 2cf9 1351 be4b 3a15
00000050: 121d 91c0 ffdc 3657 8f09 b635 9e26 46da
00000060: f5bb 38e5 0517 e7ab 13d7 194d 5c0d 5a41
00000070: d586 de26 fe42 eefc 4cc0 2f0b 37f9 1c49
00000080: 122a f55a 0b32 5807 81f6 fd36 c18b c5ee
00000090: e10c 3381 ae13 ec4e 13f3 fe36 4122 e81e
000000a0: 1206 1347 e032 1bd1 d8e8 c2e9 27d0 2424
000000b0: f232 f72a 01ff 49f3 f6d1 09f1 d1ea a4f8
000000c0: 3532 a803 b758 ff51 e0cd 8fd2 f776 e865
000000d0: 6e36 f201 192c 2ae4 7305 06bf 8322 51e0
000000e0: 27c0 bc0c e13b 3214 814a 2954 ce18 24b9
000000f0: dc26 ec18 9af5 186d ffbd ffe3 b246 b902
26 24 -29 -45 21 39 17 -21
-22 64 -54 -9 42 3 2 -12
52 -11 22 29 -36 -4 -38 84
-127 51 68 41 48 -57 -1 -38
55 -52 39 27 45 31 -6 8
-42 57 -3 -35 79 25 -57 3
127 35 -41 -18 -24 54 -69 33
-16 37 6 9 61 4 -55 5
124 14 20 -81 -61 50 87 48
44 -7 19 81 -66 75 58 21
18 29 -111 -64 -1 -36 54 87
-113 9 -74 53 -98 38 70 -38
-11 -69 56 -27 5 23 -25 -85
19 -41 25 77 92 13 90 65
-43 -122 -34 38 -2 66 -18 -4
76 -64 47 11 55 -7 28 73
18 42 -11 90 11 50 88 7
-127 -10 -3 54 -63 -117 -59 -18
-31 12 51 -127 -82 19 -20 78
19 -13 -2 54 65 34 -24 30
18 6 19 71 -32 50 27 -47
-40 -24 -62 -23 39 -48 36 36
-14 50 -9 42 1 -1 73 -13
-10 -47 9 -15 -47 -22 -92 -8
53 50 -88 3 -73 88 -1 81
-32 -51 -113 -46 -9 118 -24 101
110 54 -14 1 25 44 42 -28
115 5 6 -65 -125 34 81 -32
39 -64 -68 12 -31 59 50 20
-127 74 41 84 -50 24 36 -71
-36 38 -20 24 -102 -11 24 109
-1 -67 -1 -29 -78 70 -71 2

model/conv2d_40/Conv2D i1 [48, 1, 1, 224]
00000000: 4b28 20cc 0041 163e 2219 0703 21f5 dbd6
00000010: ec35 3d1c cd4a 1b2b f6d5 ebc8 c808 180f
00000020: 6903 d538 0f16 0af7 1a14 10fe 04ea 00b6
00000030: 4917 352d c3be 35b1 da0f fd36 1ece b1f8
00000040: d47f 0e19 2fbe 1810 cfd0 032a 190a 170a
00000050: 01e3 db19 fafe cc26 e30e 3be5 f14a e241
00000060: 1b15 261c d323 3500 d1cd b803 2e1a 35db
00000070: 03fe e346 da33 45e0 d4ed 45eb 0a15 33eb
00000080: 0c25 fb43 00fc 2aea 2dfc b8eb 00f4 4720
00000090: e03a c820 f5e3 3c05 451a e09c 554d f64d
000000a0: d0ec ddca 471e 18cd 22dd 2018 8c66 201f
000000b0: f9cf d109 43f3 49e8 ecab d9bb 0c62 4e26
000000c0: ea05 d7b6 d9e2 0803 cc0d d6b1 fe8d d698
000000d0: d32e 0345 0a35 530d fdca 0cdc ecf0 072d
000000e0: 43f5 1a12 f4ea 3c0c d6f5 5a4a 1e3a 0d24
000000f0: e30f 0747 bbca 1712 fc35 037f c431 a6fa
75 40 32 -52 0 65 22 62
34 25 7 3 33 -11 -37 -42
-20 53 61 28 -51 74 27 43
-10 -43 -21 -56 -56 8 24 15
105 3 -43 56 15 22 10 -9
26 20 16 -2 4 -22 0 -74
73 23 53 45 -61 -66 53 -79
-38 15 -3 54 30 -50 -79 -8
-44 127 14 25 47 -66 24 16
-49 -48 3 42 25 10 23 10
1 -29 -37 25 -6 -2 -52 38
-29 14 59 -27 -15 74 -30 65
27 21 38 28 -45 35 53 0
-47 -51 -72 3 46 26 53 -37
3 -2 -29 70 -38 51 69 -32
-44 -19 69 -21 10 21 51 -21
12 37 -5 67 0 -4 42 -22
45 -4 -72 -21 0 -12 71 32
-32 58 -56 32 -11 -29 60 5
69 26 -32 -100 85 77 -10 77
-48 -20 -35 -54 71 30 24 -51
34 -35 32 24 -116 102 32 31
-7 -49 -47 9 67 -13 73 -24
-20 -85 -39 -69 12 98 78 38
-22 5 -41 -74 -39 -30 8 3
-52 13 -42 -79 -2 -115 -42 -104
-45 46 3 69 10 53 83 13
-3 -54 12 -36 -20 -16 7 45
67 -11 26 18 -12 -22 60 12
-42 -11 90 74 30 58 13 36
-29 15 7 71 -69 -54 23 18
-4 53 3 127 -60 49 -90 -6

model/batch_normalization_59/FusedBatchNormV3;model/depthwise_conv2d_19/depthwise;model/depthwise_conv2d_23/depthwise i1 [1, 3, 3, 224]
00000000: 0cff 02e1 bfe9 c335 283e 4dcf e8ed b6e4
00000010: dc18 414f 10b0 138a 7619 0ea9 2aa4 203b
00000020: 0903 ba38 c4cb aced 2110 4931 ebf0 6b19
00000030: abea 213a 0a2c f305 0d2c d007 2eb8 4e2b
00000040: 2ae1 3bce 46a6 24de 98ee 0fc2 3ef7 e381
00000050: e91a 380e 2235 1bd4 30f7 d532 0e32 96d2
00000060: 040c 30e1 0baa 2817 3d52 236e 29f9 dafe
00000070: 51be 28d9 2654 5a7f 2332 2a64 c776 54e2
00000080: aaf5 251e 363a ac7f 04bc 1d5a 05fb 969e
00000090: f5cb d83b 1221 2640 bde1 ead1 7a5f 35a9
000000a0: 1219 9502 3c6c 87cf d84b 83d0 311e f903
000000b0: e208 1bd5 362a 0cf9 2d30 2415 e324 9d07
000000c0: 24de ff23 6912 fbee 3ef1 2937 ea4d fa42
000000d0: 53f1 8edb dcd3 182a 8120 1d25 a1ad 48f8
000000e0: 51d3 7bd8 7fa6 017f 016e ceb2 817f b846
000000f0: c681 ea79 d388 0cd1 537f f9b6 7f15 5d7f
12 -1 2 -31 -65 -23 -61 53
40 62 77 -49 -24 -19 -74 -28
-36 24 65 79 16 -80 19 -118
118 25 14 -87 42 -92 32 59
9 3 -70 56 -60 -53 -84 -19
33 16 73 49 -21 -16 107 25
-85 -22 33 58 10 44 -13 5
13 44 -48 7 46 -72 78 43
42 -31 59 -50 70 -90 36 -34
-104 -18 15 -62 62 -9 -29 -127
-23 26 56 14 34 53 27 -44
48 -9 -43 50 14 50 -106 -46
4 12 48 -31 11 -86 40 23
61 82 35 110 41 -7 -38 -2
81 -66 40 -39 38 84 90 127
35 50 42 100 -57 118 84 -30
-86 -11 37 30 54 58 -84 127
4 -68 29 90 5 -5 -106 -98
-11 -53 -40 59 18 33 38 64
-67 -31 -22 -47 122 95 53 -87
18 25 -107 2 60 108 -121 -49
-40 75 -125 -48 49 30 -7 3
-30 8 27 -43 54 42 12 -7
45 48 36 21 -29 36 -99 7
36 -34 -1 35 105 18 -5 -18
62 -15 41 55 -22 77 -6 66
83 -15 -114 -37 -36 -45 24 42
-127 32 29 37 -95 -83 72 -8
81 -45 123 -40 127 -90 1 127
1 110 -50 -78 -127 127 -72 70
-58 -127 -22 121 -45 -120 12 -47
83 127 -7 -74 127 21 93 127

model/conv2d_39/Conv2D i1 [224, 1, 1, 48]
00000000: feb0 3192 c2ee 1b06 0dfb f053 4231 e0df
00000010: e30c 2aa5 1dfe befe bafe 70e6 e1c7 c023
00000020: 7a81 12de 072b 2f2c e4f4 e916 a2db ed05
00000030: 1426 36a7 5ec1 15cd 5501 33cb 1e2b 13b3
00000040: 1149 efc1 277f dbf6 ffce 6960 3dfc 45fd
00000050: e440 3f55 170b 600d f236 0fba 1cb1 4c57
00000060: 15b6 09f4 edb5 e7f1 04e7 9204 1b5c f641
00000070: cf02 27eb 1dcb 0720 55f8 4683 a6e0 31e7
00000080: d31f fb20 36d0 25f5 1a66 f8ea 7fe2 3320
00000090: 05ea 091b 3206 e402 e75e 323b 1e59 1f1d
000000a0: 4425 a85c 2061 c1d5 4093 201d 3981 0612
000000b0: 1dc7 da43 dc54 4714 4fe5 e0f8 220f 2be7
000000c0: 780c 11bf c781 6124 f2f9 acdc ca41 fe03
000000d0: 4911 00be 0a30 27de 2871 f9d9 fe4e 3720
000000e0: e05a b5e6 1d02 bdfc cc2d 3363 266a 29ab
000000f0: e82c d4e0 01cb e3dc 04da 63ee e994 f0b6
-2 -80 49 -110 -62 -18 27 6
13 -5 -16 83 66 49 -32 -33
-29 12 42 -91 29 -2 -66 -2
-70 -2 112 -26 -31 -57 -64 35
122 -127 18 -34 7 43 47 44
-28 -12 -23 22 -94 -37 -19 5
20 38 54 -89 94 -63 21 -51
85 1 51 -53 30 43 19 -77
17 73 -17 -63 39 127 -37 -10
-1 -50 105 96 61 -4 69 -3
-28 64 63 85 23 11 96 13
-14 54 15 -70 28 -79 76 87
21 -74 9 -12 -19 -75 -25 -15
4 -25 -110 4 27 92 -10 65
-49 2 39 -21 29 -53 7 32
85 -8 70 -125 -90 -32 49 -25
-45 31 -5 32 54 -48 37 -11
26 102 -8 -22 127 -30 51 32
5 -22 9 27 50 6 -28 2
-25 94 50 59 30 89 31 29
68 37 -88 92 32 97 -63 -43
64 -109 32 29 57 -127 6 18
29 -57 -38 67 -36 84 71 20
79 -27 -32 -8 34 15 43 -25
120 12 17 -65 -57 -127 97 36
-14 -7 -84 -36 -54 65 -2 3
73 17 0 -66 10 48 39 -34
40 113 -7 -39 -2 78 55 32
-32 90 -75 -26 29 2 -67 -4
-52 45 51 99 38 106 41 -85
-24 44 -44 -32 1 -53 -29 -36
4 -38 99 -18 -23 -108 -16 -74

model/conv2d_38/Conv2D i1 [48, 1, 1, 136]
00000000: c047 b3f1 c4b4 4108 fca8 2ccc bb03 eaa0
00000010: f528 d9e6 ef05 260b b307 fb2a ccf6 f300
00000020: dc2d a2df 39a8 a017 03ea 5b18 de2b b165
00000030: d3fb 6817 33c9 0c15 dfc1 f113 2d45 c3c7
00000040: dffb f423 c4e2 0a01 4e61 41ab 55ed 69b8
00000050: 0e16 1c9c faf6 1112 fa1c 1212 eef6 da7b
00000060: 78ea 4af8 09db 7f67 3bf3 96fb e21b fcc2
00000070: e803 2ada f0bb e10d 11e6 f613 3c22 f2e7
00000080: 1327 c54b 3f0c 02c1 d1fd 01e0 a120 1c10
00000090: bd7f c725 f0f9 03f4 0023 b940 c40a df12
000000a0: ebd7 13ea dfd6 58ea 4be8 fb09 2b68 c417
000000b0: 0ad8 f1c2 342b fae3 b1e2 e64d 1adb d9fe
000000c0: e0b7 e2f0 353b 3c19 2c70 ef16 d805 2443
000000d0: c3d6 d9c8 be0e d9f8 4624 3d32 42e7 fcc6
000000e0: b1be 30ea f917 3303 f7d6 38b3 d2ed 23e3
000000f0: 0011 ff0c d360 3fb5 09d3 eff1 0f55 d01e
-64 71 -77 -15 -60 -76 65 8
-4 -88 44 -52 -69 3 -22 -96
-11 40 -39 -26 -17 5 38 11
-77 7 -5 42 -52 -10 -13 0
-36 45 -94 -33 57 -88 -96 23
3 -22 91 24 -34 43 -79 101
-45 -5 104 23 51 -55 12 21
-33 -63 -15 19 45 69 -61 -57
-33 -5 -12 35 -60 -30 10 1
78 97 65 -85 85 -19 105 -72
14 22 28 -100 -6 -10 17 18
-6 28 18 18 -18 -10 -38 123
120 -22 74 -8 9 -37 127 103
59 -13 -106 -5 -30 27 -4 -62
-24 3 42 -38 -16 -69 -31 13
17 -26 -10 19 60 34 -14 -25
19 39 -59 75 63 12 2 -63
-47 -3 1 -32 -95 32 28 16
-67 127 -57 37 -16 -7 3 -12
0 35 -71 64 -60 10 -33 18
-21 -41 19 -22 -33 -42 88 -22
75 -24 -5 9 43 104 -60 23
10 -40 -15 -62 52 43 -6 -29
-79 -30 -26 77 26 -37 -39 -2
-32 -73 -30 -16 53 59 60 25
44 112 -17 22 -40 5 36 67
-61 -42 -39 -56 -66 14 -39 -8
70 36 61 50 66 -25 -4 -58
-79 -66 48 -22 -7 23 51 3
-9 -42 56 -77 -46 -19 35 -29
0 17 -1 12 -45 96 63 -75
9 -45 -17 -15 15 85 -48 30

model/batch_normalization_56/FusedBatchNormV3;model/depthwise_conv2d_18/depthwise i1 [1, 3, 3, 136]
00000000: 1b29 0a17 24f4 252b 301c ea16 2ddc fadd
00000010: 262b 1e2a d4d1 d2ae e72c 2cef 1c47 f81e
00000020: 2017 32c4 d71a e6cf 2a44 071f 71e9 e716
00000030: e2e0 e330 db2a 1eb0 2ce6 1be5 124c 0c37
00000040: 1429 372f 2926 18d1 cca3 c043 d6cf 2d14
00000050: 1eeb dbe6 1728 39de 0c13 bfb3 e31a 1727
00000060: 1529 bba7 1e1a 1f1e 2f69 e01e 1419 c92c
00000070: 2627 d723 12d7 cade 142d 0531 13d9 e90a
00000080: 1cdc 2322 1aeb 4e0c 5349 292b 3fc6 494f
00000090: 964c c447 4d9d 3cbb 4300 4350 bf88 e9b0
000000a0: bc4d 53d9 4a6d 4c40 3f3b 499c ba45 c981
000000b0: 4b26 243d 66c9 c739 c5d9 c65a b757 4350
000000c0: 5bd0 3cc5 bd63 4360 2c48 4c51 1f49 439e
000000d0: ae83 934c a7cb 4d32 37d6 c1b5 4367 01b4
000000e0: 5736 8104 bc22 3a56 3b45 f7b8 463c 3c53
000000f0: 576a bf48 363a aa42 540e a948 d9c5 b2b3
27 41 10 23 36 -12 37 43
48 28 -22 22 45 -36 -6 -35
38 43 30 42 -44 -47 -46 -82
-25 44 44 -17 28 71 -8 30
32 23 50 -60 -41 26 -26 -49
42 68 7 31 113 -23 -25 22
-30 -32 -29 48 -37 42 30 -80
44 -26 27 -27 18 76 12 55
20 41 55 47 41 38 24 -47
-52 -93 -64 67 -42 -49 45 20
30 -21 -37 -26 23 40 57 -34
12 19 -65 -77 -29 26 23 39
21 41 -69 -89 30 26 31 30
47 105 -32 30 20 25 -55 44
38 39 -41 35 18 -41 -54 -34
20 45 5 49 19 -39 -23 10
28 -36 35 34 26 -21 78 12
83 73 41 43 63 -58 73 79
-106 76 -60 71 77 -99 60 -69
67 0 67 80 -65 -120 -23 -80
-68 77 83 -39 74 109 76 64
63 59 73 -100 -70 69 -55 -127
75 38 36 61 102 -55 -57 57
-59 -39 -58 90 -73 87 67 80
91 -48 60 -59 -67 99 67 96
44 72 76 81 31 73 67 -98
-82 -125 -109 76 -89 -53 77 50
55 -42 -63 -75 67 103 1 -76
87 54 -127 4 -68 34 58 86
59 69 -9 -72 70 60 60 83
87 106 -65 72 54 58 -86 66
84 14 -87 72 -39 -59 -78 -77

model/conv2d_37/Conv2D i1 [136, 1, 1, 24]
00000000: b111 e1bd f83c cac9 811f 45ef e0d8 f5cc
00000010: f4fc d458 e5df e427 b019 4b4a c0de b244
00000020: e9b7 de0b 2a94 0681 3e54 0eed 16f5 71f5
00000030: f0e6 1aca 0746 c401 4c2d 4f56 0bdd ced5
00000040: 810f ea2c dc17 2271 72c5 534d c055 0f08
00000050: d01e 7fff 2dc5 eb23 3157 b1b5 2d02 cb2e
00000060: afe2 1eea 214d 9acf 10a5 d7ff 1c39 cfdc
00000070: bc38 1e07 377f ff6b d035 e320 c0c1 aaf4
00000080: bd57 daa9 1f81 be8f 76c1 d825 13c6 e616
00000090: 44d8 acb5 194f 0af2 c5bd 0606 2840 0231
000000a0: 21d6 4f30 3e7f dc18 68ec e20a aded d747
000000b0: 39f7 1a4c 7fb6 ef66 94b8 174b 36dc 3211
000000c0: fbeb ba5b e4c1 0ff1 2500 edf6 faed 53ea
000000d0: 41d4 3e81 ff3e f44f 7df2 1493 39df bfe3
000000e0: cd7f d302 d752 4008 e422 0d22 f5af cf75
000000f0: f930 c903 137f 1e44 20e7 f3fd 3ea6 09e3
-79 17 -31 -67 -8 60 -54 -55
-127 31 69 -17 -32 -40 -11 -52
-12 -4 -44 88 -27 -33 -28 39
-80 25 75 74 -64 -34 -78 68
-23 -73 -34 11 42 -108 6 -127
62 84 14 -19 22 -11 113 -11
-16 -26 26 -54 7 70 -60 1
76 45 79 86 11 -35 -50 -43
-127 15 -22 44 -36 23 34 113
114 -59 83 77 -64 85 15 8
-48 30 127 -1 45 -59 -21 35
49 87 -79 -75 45 2 -53 46
-81 -30 30 -22 33 77 -102 -49
16 -91 -41 -1 28 57 -49 -36
-68 56 30 7 55 127 -1 107
-48 53 -29 32 -64 -63 -86 -12
-67 87 -38 -87 31 -127 -66 -113
118 -63 -40 37 19 -58 -26 22
68 -40 -84 -75 25 79 10 -14
-59 -67 6 6 40 64 2 49
33 -42 79 48 62 127 -36 24
104 -20 -30 10 -83 -19 -41 71
57 -9 26 76 127 -74 -17 102
-108 -72 23 75 54 -36 50 17
-5 -21 -70 91 -28 -63 15 -15
37 0 -19 -10 -6 -19 83 -22
65 -44 62 -127 -1 62 -12 79
125 -14 20 -109 57 -33 -65 -29
-51 127 -45 2 -41 82 64 8
-28 34 13 34 -11 -81 -49 117
-7 48 -55 3 19 127 30 68
32 -25 -13 -3 62 -90 9 -29

model/conv2d_36/Conv2D i1 [24, 1, 1, 136]
00000000: ddd0 423d 8102 3d0f fccc 1924 3cfa e9b7
00000010: 2ccb 14c5 43d8 e2fa f4f8 08d4 110c 3b0e
00000020: fb25 30cb 54b0 10f6 30f1 45ba cd20 c31f
00000030: d7cf c5ef 1dfb 07bc c386 f7b5 145f ea3b
00000040: 265f e0fd f731 d845 1df4 00d6 22e0 bff2
00000050: d24b cdfd 98ba 3acf 4ae5 fa0b 25ca 0f11
00000060: 2f0c d337 0fd1 1b2a 27f1 fdf1 d3e1 f108
00000070: 1311 1c02 1726 2de3 11c6 fde0 ae1e d42e
00000080: ba16 1afd fadb c8f4 cad7 f309 07e6 f8d4
00000090: 2eb9 f6e6 ba02 5939 dd3f 4029 0a03 3824
000000a0: 0119 dae4 45da 2614 8121 f819 ea11 f3ed
000000b0: b5f4 27ae db32 22a3 410e 2227 ec32 5aee
000000c0: f610 fe16 1495 8912 3de8 d7d7 25f4 2c17
000000d0: ce0f 3e24 4816 0117 f9d9 26c8 05e6 91fd
000000e0: fa13 48e7 a7b7 49b8 0e48 34e4 123f f93a
000000f0: 04dc f6da 14d9 0269 2bc3 c1ff f20b c8df
-35 -48 66 61 -127 2 61 15
-4 -52 25 36 60 -6 -23 -73
44 -53 20 -59 67 -40 -30 -6
-12 -8 8 -44 17 12 59 14
-5 37 48 -53 84 -80 16 -10
48 -15 69 -70 -51 32 -61 31
-41 -49 -59 -17 29 -5 7 -68
-61 -122 -9 -75 20 95 -22 59
38 95 -32 -3 -9 49 -40 69
29 -12 0 -42 34 -32 -65 -14
-46 75 -51 -3 -104 -70 58 -49
74 -27 -6 11 37 -54 15 17
47 12 -45 55 15 -47 27 42
39 -15 -3 -15 -45 -31 -15 8
19 17 28 2 23 38 45 -29
17 -58 -3 -32 -82 30 -44 46
-70 22 26 -3 -6 -37 -56 -12
-54 -41 -13 9 7 -26 -8 -44
46 -71 -10 -26 -70 2 89 57
-35 63 64 41 10 3 56 36
1 25 -38 -28 69 -38 38 20
-127 33 -8 25 -22 17 -13 -19
-75 -12 39 -82 -37 50 34 -93
65 14 34 39 -20 50 90 -18
-10 16 -2 22 20 -107 -119 18
61 -24 -41 -41 37 -12 44 23
-50 15 62 36 72 22 1 23
-7 -39 38 -56 5 -26 -111 -3
-6 19 72 -25 -89 -73 73 -72
14 72 52 -28 18 63 -7 58
4 -36 -10 -38 20 -39 2 105
43 -61 -63 -1 -14 11 -56 -33
