darknet_tflite/myModel/coco_person/output_model/yolo-fastest-1.1-person-f32.tflite (tflite, 520560 bytes, 84 tensors)

model/conv2d_55/Conv2D i1 [18, 1, 1, 120]
39 -2 -127 72 15 -9 -4 48
2 17 -12 -1 8 -53 -21 -12
-29 31 -5 -5 80 -25 -39 37
-16 -43 -20 -29 -86 28 -110 -2
-109 42 -31 44 41 1 8 3
8 -72 16 16 -8 -6 38 -58
-15 1 -67 -4 -15 -12 36 12
-91 2 2 -59 -12 -54 -30 -12
34 -1 -11 -52 -34 -22 -31 -15
-9 -2 0 -42 93 -15 33 28
-7 -41 48 -81 -8 -31 -15 -3
20 -3 11 -16 -34 -18 26 -64
7 -5 -8 -8 15 -9 -11 -5
40 23 -113 -7 -54 26 3 -3
11 -64 -5 -44 -1 -21 -8 38
-20 39 2 -49 124 27 65 33
3 96 -37 -65 -37 29 -62 -20
10 26 -6 41 84 -2 41 25
68 -45 72 -6 12 -11 43 21
24 -2 51 -39 -19 34 108 -16
12 33 -68 -21 16 90 -3 -10
36 20 42 15 -10 -18 -7 23
-83 -4 -38 -5 -11 -80 -15 41
-7 11 33 23 -36 55 48 45
21 23 -10 -70 -19 2 -38 -64
-18 57 -11 33 93 36 -8 -34
11 18 -42 45 -1 77 -5 -11
50 5 -6 -2 -57 -21 43 -12
43 -4 -5 -66 -8 68 -9 -2
-18 -86 -9 -81 127 73 -11 11
-19 -3 -59 -24 71 11 12 -43
30 -37 21 21 34 -17 50 -20
00000000: 27fe 8148 0ff7 fc30 0211 f4ff 08cb ebf4
00000010: e31f fbfb 50e7 d925 f0d5 ece3 aa1c 92fe
00000020: 932a e12c 2901 0803 08b8 1010 f8fa 26c6
00000030: f101 bdfc f1f4 240c a502 02c5 f4ca e2f4
00000040: 22ff f5cc deea e1f1 f7fe 00d6 5df1 211c
00000050: f9d7 30af f8e1 f1fd 14fd 0bf0 deee 1ac0
00000060: 07fb f8f8 0ff7 f5fb 2817 8ff9 ca1a 03fd
00000070: 0bc0 fbd4 ffeb f826 ec27 02cf 7c1b 4121
00000080: 0360 dbbf db1d c2ec 0a1a fa29 54fe 2919
00000090: 44d3 48fa 0cf5 2b15 18fe 33d9 ed22 6cf0
000000a0: 0c21 bceb 105a fdf6 2414 2a0f f6ee f917
000000b0: adfc dafb f5b0 f129 f90b 2117 dc37 302d
000000c0: 1517 f6ba ed02 dac0 ee39 f521 5d24 f8de
000000d0: 0b12 d62d ff4d fbf5 3205 fafe c7eb 2bf4
000000e0: 2bfc fbbe f844 f7fe eeaa f7af 7f49 f50b
000000f0: edfd c5e8 470b 0cd5 1edb 1515 22ef 32ec

model/conv2d_54/Conv2D i1 [120, 1, 1, 120]
21 29 -2 -59 -51 -17 22 57
-21 -56 18 75 -26 2 4 12
5 54 -50 -85 -22 10 0 -24
0 -31 -11 31 5 -13 -28 11
-26 -6 82 -5 -49 23 9 -28
-57 -45 -56 7 -12 -2 52 0
5 9 45 -19 9 -36 -16 28
-5 -55 9 -10 16 31 20 11
32 42 7 -42 -20 -2 -8 -20
54 39 24 -6 14 -33 -11 20
-46 -38 -23 -18 22 -86 -7 56
51 26 -14 69 13 33 33 -16
-127 -15 29 42 -8 -5 -15 28
42 2 -6 25 1 35 5 37
4 53 78 10 42 -30 -7 -36
20 20 -13 -13 0 19 40 -7
29 -1 9 -12 -37 22 38 12
36 -13 2 14 -8 -36 27 -38
0 57 52 40 36 -35 21 42
16 35 -26 14 8 1 -21 -30
-1 24 18 28 26 31 -32 40
42 -9 16 27 -7 7 1 5
-7 -18 -28 28 18 -33 -33 34
-10 -4 13 14 -10 50 29 -6
28 -31 -33 -42 50 43 -5 -23
4 31 29 10 79 13 23 21
55 -9 24 -7 36 -27 23 6
-16 -8 4 -20 -31 23 36 -28
112 19 69 26 -11 127 40 -5
0 23 -26 -33 -5 -34 18 36
0 2 -42 -15 89 -28 20 -126
-32 16 21 48 -13 -4 35 -41
00000000: 151d fec5 cdef 1639 ebc8 124b e602 040c
00000010: 0536 ceab ea0a 00e8 00e1 f51f 05f3 e40b
00000020: e6fa 52fb cf17 09e4 c7d3 c807 f4fe 3400
00000030: 0509 2ded 09dc f01c fbc9 09f6 101f 140b
00000040: 202a 07d6 ecfe f8ec 3627 18fa 0edf f514
00000050: d2da e9ee 16aa f938 331a f245 0d21 21f0
00000060: 81f1 1d2a f8fb f11c 2a02 fa19 0123 0525
00000070: 0435 4e0a 2ae2 f9dc 1414 f3f3 0013 28f9
00000080: 1dff 09f4 db16 260c 24f3 020e f8dc 1bda
00000090: 0039 3428 24dd 152a 1023 e60e 0801 ebe2
000000a0: ff18 121c 1a1f e028 2af7 101b f907 0105
000000b0: f9ee e41c 12df df22 f6fc 0d0e f632 1dfa
000000c0: 1ce1 dfd6 322b fbe9 041f 1d0a 4f0d 1715
000000d0: 37f7 18f9 24e5 1706 f0f8 04ec e117 24e4
000000e0: 7013 451a f57f 28fb 0017 e6df fbde 1224
000000f0: 0002 d6f1 59e4 1482 e010 1530 f3fc 23d7

model/batch_normalization_80/FusedBatchNormV3;model/depthwise_conv2d_27/depthwise;model/conv2d_54/Conv2D i1 [1, 5, 5, 120]
0 2 -3 -9 -1 10 -21 -2
9 0 -9 -9 15 3 2 2
-5 -5 5 13 -6 0 3 -6
-1 0 102 -4 22 -13 11 -26
-3 -1 -3 0 2 -2 9 -1
3 10 -1 -1 -3 31 -3 -12
-1 -10 3 9 -9 0 -2 -1
-4 1 -9 13 -20 6 -11 -8
-2 1 7 -3 -1 -1 -5 1
2 -2 4 2 -1 2 2 2
-6 25 5 0 -2 7 3 -2
-2 -4 -9 3 -11 -1 -16 0
-10 -3 -1 7 0 2 -3 -7
7 -21 -9 -2 -7 -15 -2 19
-1 -13 -6 13 2 -3 -4 -4
-21 2 -68 -6 -4 7 -24 3
-6 18 -4 -3 -34 -7 2 3
-7 5 0 50 0 -7 2 -6
-10 0 69 -4 27 -15 -4 -72
-8 15 -3 9 0 -1 -1 0
-1 3 -5 5 2 -19 7 -5
-3 -1 7 3 0 -3 -1 0
-4 1 6 -10 -24 12 4 25
-2 0 15 13 -7 1 4 4
-13 3 11 0 6 3 3 8
-4 8 -2 -3 -5 8 17 2
4 -7 24 4 0 -3 14 -7
-17 -10 2 15 -20 0 -27 28
8 -33 0 6 25 -36 -1 23
-45 -2 0 20 5 1 6 10
-74 -1 68 -1 10 95 -38 5
1 -10 -8 -29 27 -8 30 -3
00000000: 0002 fdf7 ff0a ebfe 0900 f7f7 0f03 0202
00000010: fbfb 050d fa00 03fa ff00 66fc 16f3 0be6
00000020: fdff fd00 02fe 09ff 030a ffff fd1f fdf4
00000030: fff6 0309 f700 feff fc01 f70d ec06 f5f8
00000040: fe01 07fd ffff fb01 02fe 0402 ff02 0202
00000050: fa19 0500 fe07 03fe fefc f703 f5ff f000
00000060: f6fd ff07 0002 fdf9 07eb f7fe f9f1 fe13
00000070: fff3 fa0d 02fd fcfc eb02 bcfa fc07 e803
00000080: fa12 fcfd def9 0203 f905 0032 00f9 02fa
00000090: f600 45fc 1bf1 fcb8 f80f fd09 00ff ff00
000000a0: ff03 fb05 02ed 07fb fdff 0703 00fd ff00
000000b0: fc01 06f6 e80c 0419 fe00 0f0d f901 0404
000000c0: f303 0b00 0603 0308 fc08 fefd fb08 1102
000000d0: 04f9 1804 00fd 0ef9 eff6 020f ec00 e51c
000000e0: 08df 0006 19dc ff17 d3fe 0014 0501 060a
000000f0: b6ff 44ff 0a5f da05 01f6 f8e3 1bf8 1efd

model/conv2d_53/Conv2D i1 [120, 1, 1, 120]
8 -75 45 69 -57 23 -8 18
-34 -62 57 -9 10 -53 -39 15
-18 -15 -30 -97 4 -33 15 -9
21 -5 -34 13 -6 77 -27 8
36 -52 6 6 -19 95 37 -8
25 76 -31 14 -37 21 44 -46
-29 20 99 15 -1 18 -127 40
20 36 -5 14 -66 -10 -28 2
-33 -26 20 -42 -75 5 -81 2
54 -41 -21 8 32 -28 23 67
31 23 -3 -25 -4 -85 -19 58
7 -66 22 -3 36 -21 100 32
-26 -14 -45 29 82 0 -57 -35
30 -75 -2 -42 -66 -26 -38 7
-16 -58 -33 -14 -53 -14 -9 -83
-3 10 0 -11 4 -6 -5 0
-10 12 7 19 6 -22 -34 10
27 -34 2 6 0 -6 7 -8
-21 3 5 6 -5 9 16 1
-2 -10 41 -1 2 23 27 14
3 -13 -127 -12 -5 -37 -79 1
21 16 -7 21 -7 -1 -18 -21
-26 -7 -8 -21 -53 -12 29 -9
0 -1 30 -6 -38 -36 -32 1
-40 3 -49 33 7 -2 21 -24
6 2 39 -34 0 22 72 -19
-54 -2 13 -23 -27 7 14 -8
-87 61 4 -110 -68 53 -89 26
30 -77 -27 7 26 3 91 -7
-55 5 80 5 49 11 -81 -3
-47 -11 -19 -7 10 -5 -28 -64
7 -4 25 42 45 -49 -20 -44
00000000: 08b5 2d45 c717 f812 dec2 39f7 0acb d90f
00000010: eef1 e29f 04df 0ff7 15fb de0d fa4d e508
00000020: 24cc 0606 ed5f 25f8 194c e10e db15 2cd2
00000030: e314 630f ff12 8128 1424 fb0e bef6 e402
00000040: dfe6 14d6 b505 af02 36d7 eb08 20e4 1743
00000050: 1f17 fde7 fcab ed3a 07be 16fd 24eb 6420
00000060: e6f2 d31d 5200 c7dd 1eb5 fed6 bee6 da07
00000070: f0c6 dff2 cbf2 f7ad fd0a 00f5 04fa fb00
00000080: f60c 0713 06ea de0a 1bde 0206 00fa 07f8
00000090: eb03 0506 fb09 1001 fef6 29ff 0217 1b0e
000000a0: 03f3 81f4 fbdb b101 1510 f915 f9ff eeeb
000000b0: e6f9 f8eb cbf4 1df7 00ff 1efa dadc e001
000000c0: d803 cf21 07fe 15e8 0602 27de 0016 48ed
000000d0: cafe 0de9 e507 0ef8 a93d 0492 bc35 a71a
000000e0: 1eb3 e507 1a03 5bf9 c905 5005 310b affd
000000f0: d1f5 edf9 0afb e4c0 07fc 192a 2dcf ecd4

model/batch_normalization_78/FusedBatchNormV3;model/depthwise_conv2d_26/depthwise;model/conv2d_54/Conv2D i1 [1, 5, 5, 120]
-13 -40 -22 -29 66 -58 -12 44
-32 39 -3 109 18 -103 27 -108
3 -83 -26 62 -11 -5 23 46
47 46 -65 13 -48 20 5 115
114 -19 -44 -60 66 28 -50 66
-43 -43 -19 1 -93 -37 -6 -54
-27 -87 -47 -10 -102 35 -68 -78
4 29 13 -24 5 -25 25 69
-73 109 30 58 -47 38 -27 -108
-34 10 -35 -17 -90 -117 -59 49
43 -14 -14 -25 -17 -55 -18 -5
-50 16 -38 32 32 -120 15 90
-1 6 -4 -1 -2 3 1 -8
1 1 0 1 4 0 2 -1
0 1 0 3 1 2 2 0
-28 -2 -1 -73 23 29 10 24
-23 2 5 -46 -36 -38 -49 -35
-26 17 -54 82 -41 -40 -5 38
-80 -22 16 37 75 13 -29 93
-37 -10 -56 -98 13 -41 -12 57
6 11 -6 -77 4 -27 -77 -24
9 -36 51 11 -24 4 -15 65
-34 21 14 -18 44 42 2 -31
25 -9 -12 4 20 25 11 -40
111 -3 45 -6 -11 -53 49 -8
-93 -48 -27 -12 51 -21 7 -102
-40 48 52 60 16 5 -38 -12
-12 -1 -7 -6 4 10 9 10
0 11 -4 -1 -4 3 -11 -1
4 -1 10 3 -13 -10 5 5
47 39 75 -72 9 80 22 65
7 9 53 -95 -59 4 -127 -37
00000000: f3d8 eae3 42c6 f42c e027 fd6d 1299 1b94
00000010: 03ad e63e f5fb 172e 2f2e bf0d d014 0573
00000020: 72ed d4c4 421c ce42 d5d5 ed01 a3db faca
00000030: e5a9 d1f6 9a23 bcb2 041d 0de8 05e7 1945
00000040: b76d 1e3a d126 e594 de0a ddef a68b c531
00000050: 2bf2 f2e7 efc9 eefb ce10 da20 2088 0f5a
00000060: ff06 fcff fe03 01f8 0101 0001 0400 02ff
00000070: 0001 0003 0102 0200 e4fe ffb7 171d 0a18
00000080: e902 05d2 dcda cfdd e611 ca52 d7d8 fb26
00000090: b0ea 1025 4b0d e35d dbf6 c89e 0dd7 f439
000000a0: 060b fab3 04e5 b3e8 09dc 330b e804 f141
000000b0: de15 0eee 2c2a 02e1 19f7 f404 1419 0bd8
000000c0: 6ffd 2dfa f5cb 31f8 a3d0 e5f4 33eb 079a
000000d0: d830 343c 1005 daf4 f4ff f9fa 040a 090a
000000e0: 000b fcff fc03 f5ff 04ff 0a03 f3f6 0505
000000f0: 2f27 4bb8 0950 1641 0709 35a1 c504 81db

model/conv2d_52/Conv2D i1 [18, 1, 1, 96]
-31 -17 -39 -18 -127 5 20 10
-43 -9 -4 7 -13 -44 5 -16
0 18 -53 8 10 -1 -61 -32
21 -45 38 22 -1 -35 18 -16
-1 -27 -7 32 -5 35 2 46
46 -4 -10 -37 28 39 17 60
11 -96 -50 -40 -17 21 -1 -15
-22 -29 -62 -24 12 -9 57 80
55 -3 -12 16 10 -18 -51 -34
13 11 -8 -9 7 42 -17 49
20 -60 26 -82 -34 -27 30 -42
-10 19 105 -13 -5 34 -21 -12
28 16 38 -7 -18 -39 15 -1
-18 11 1 -14 21 -29 -6 25
5 9 -16 1 6 58 4 18
24 75 18 9 -32 -19 22 49
-1 -2 -28 5 -15 -22 65 20
50 -24 -16 1 -5 11 -11 9
-85 -42 0 -23 -16 -3 16 -31
-2 -16 -36 -16 15 -47 4 -4
10 16 -49 -127 15 -7 21 40
4 -25 -8 9 -11 26 -39 -3
45 6 -38 -3 1 -35 -4 -40
-6 8 -86 -28 8 -17 11 9
1 -22 17 -15 45 -30 -8 -12
-24 -15 12 -28 -8 47 16 -13
0 -11 -22 2 12 -5 21 -8
-18 4 -10 -20 -4 35 0 -97
-17 22 41 12 6 -15 -44 15
0 5 -82 5 1 -25 -18 21
-16 -33 13 33 0 33 -10 15
15 1 8 13 -15 -33 8 -20
00000000: e1ef d9ee 8105 140a d5f7 fc07 f3d4 05f0
00000010: 0012 cb08 0aff c3e0 15d3 2616 ffdd 12f0
00000020: ffe5 f920 fb23 022e 2efc f6db 1c27 113c
00000030: 0ba0 ced8 ef15 fff1 eae3 c2e8 0cf7 3950
00000040: 37fd f410 0aee cdde 0d0b f8f7 072a ef31
00000050: 14c4 1aae dee5 1ed6 f613 69f3 fb22 ebf4
00000060: 1c10 26f9 eed9 0fff ee0b 01f2 15e3 fa19
00000070: 0509 f001 063a 0412 184b 1209 e0ed 1631
00000080: fffe e405 f1ea 4114 32e8 f001 fb0b f509
00000090: abd6 00e9 f0fd 10e1 fef0 dcf0 0fd1 04fc
000000a0: 0a10 cf81 0ff9 1528 04e7 f809 f51a d9fd
000000b0: 2d06 dafd 01dd fcd8 fa08 aae4 08ef 0b09
000000c0: 01ea 11f1 2de2 f8f4 e8f1 0ce4 f82f 10f3
000000d0: 00f5 ea02 0cfb 15f8 ee04 f6ec fc23 009f
000000e0: ef16 290c 06f1 d40f 0005 ae05 01e7 ee15
000000f0: f0df 0d21 0021 f60f 0f01 080d f1df 08ec

model/conv2d_51/Conv2D i1 [96, 1, 1, 96]
-18 59 -9 36 -18 -31 3 -73
-43 34 0 32 -46 -49 23 31
-127 10 38 -34 34 -25 -37 -13
-14 39 2 -15 -50 32 -2 36
21 23 20 35 15 -44 3 -64
-26 59 -15 36 -55 -15 42 36
26 39 13 48 -37 51 -11 -4
-9 -12 25 -23 -38 -8 -29 43
59 -32 -9 -48 37 -26 24 39
-55 -12 12 0 49 -20 -13 36
53 43 44 -14 -18 -43 -28 26
36 12 -38 44 -49 -43 -6 -64
0 31 -33 33 -2 -24 7 -13
-8 -22 -39 -53 2 0 -67 16
59 11 31 -9 22 -38 -1 18
-28 39 7 -49 11 22 1 7
-3 -42 38 33 6 -24 -14 -4
-3 -14 -23 29 38 -2 40 16
0 14 1 6 -2 33 -21 11
-8 -96 39 12 4 -45 0 16
48 21 -25 -38 48 -12 46 -9
-10 -24 38 -23 71 -40 7 39
46 33 40 4 -26 5 -53 -1
-127 7 -38 32 -10 -8 -13 51
-127 18 -2 10 2 -31 -37 69
-72 -14 -29 27 -5 -26 -8 57
-13 -42 8 -13 13 -23 -14 -58
-26 9 39 -5 -15 -17 -7 -2
25 22 11 19 6 0 54 -9
-34 27 -37 12 19 -13 -18 -8
59 66 25 -19 -46 22 -14 50
-14 -14 5 -10 -23 11 10 4
00000000: ee3b f724 eee1 03b7 d522 0020 d2cf 171f
00000010: 810a 26de 22e7 dbf3 f227 02f1 ce20 fe24
00000020: 1517 1423 0fd4 03c0 e63b f124 c9f1 2a24
00000030: 1a27 0d30 db33 f5fc f7f4 19e9 daf8 e32b
00000040: 3be0 f7d0 25e6 1827 c9f4 0c00 31ec f324
00000050: 352b 2cf2 eed5 e41a 240c da2c cfd5 fac0
00000060: 001f df21 fee8 07f3 f8ea d9cb 0200 bd10
00000070: 3b0b 1ff7 16da ff12 e427 07cf 0b16 0107
00000080: fdd6 2621 06e8 f2fc fdf2 e91d 26fe 2810
00000090: 000e 0106 fe21 eb0b f8a0 270c 04d3 0010
000000a0: 3015 e7da 30f4 2ef7 f6e8 26e9 47d8 0727
000000b0: 2e21 2804 e605 cbff 8107 da20 f6f8 f333
000000c0: 8112 fe0a 02e1 db45 b8f2 e31b fbe6 f839
000000d0: f3d6 08f3 0de9 f2c6 e609 27fb f1ef f9fe
000000e0: 1916 0b13 0600 36f7 de1b db0c 13f3 eef8
000000f0: 3b42 19ed d216 f232 f2f2 05f6 e90b 0a04

model/batch_normalization_76/FusedBatchNormV3;model/depthwise_conv2d_25/depthwise;model/conv2d_51/Conv2D i1 [1, 5, 5, 96]
-2 -31 3 8 2 5 -2 -3
-6 2 -50 -17 -28 13 1 3
-17 1 -8 -13 100 14 -2 -12
-5 -5 1 20 20 17 0 1
58 1 32 -3 1 4 5 -81
-20 0 5 -42 -7 -10 2 -1
-2 1 1 13 -1 31 57 -5
-8 4 -12 31 -19 2 7 13
-13 4 3 -67 12 -27 11 4
-102 -13 4 7 -3 0 5 -5
-6 -80 -56 1 3 -21 -31 -1
-38 2 -17 -31 5 -3 -1 19
-42 14 7 20 2 17 12 17
5 0 3 2 -3 16 18 -40
13 9 -13 16 49 -25 60 -36
-31 -8 7 -5 33 13 -8 5
70 -4 34 -16 18 2 6 -54
21 6 -32 -42 -51 19 2 18
3 3 9 -5 2 17 18 17
-9 8 10 85 8 -16 -53 -10
10 -3 -5 -71 -7 40 -22 -1
53 -22 4 -32 0 10 -6 -5
-34 -42 71 4 -6 -28 -96 -25
-29 16 -46 -11 -19 1 -2 -15
49 53 -10 -22 15 88 13 3
-23 -10 30 47 2 -43 36 -84
8 16 26 41 36 -57 -36 -95
11 -16 18 -43 47 85 22 -10
-59 -9 -103 7 14 -50 38 -36
62 -11 -78 71 -82 4 -49 36
17 5 -11 21 9 86 -25 -20
18 8 12 -29 86 -45 6 -95
00000000: fee1 0308 0205 fefd fa02 ceef e40d 0103
00000010: ef01 f8f3 640e fef4 fbfb 0114 1411 0001
00000020: 3a01 20fd 0104 05af ec00 05d6 f9f6 02ff
00000030: fe01 010d ff1f 39fb f804 f41f ed02 070d
00000040: f304 03bd 0ce5 0b04 9af3 0407 fd00 05fb
00000050: fab0 c801 03eb e1ff da02 efe1 05fd ff13
00000060: d60e 0714 0211 0c11 0500 0302 fd10 12d8
00000070: 0d09 f310 31e7 3cdc e1f8 07fb 210d f805
00000080: 46fc 22f0 1202 06ca 1506 e0d6 cd13 0212
00000090: 0303 09fb 0211 1211 f708 0a55 08f0 cbf6
000000a0: 0afd fbb9 f928 eaff 35ea 04e0 000a fafb
000000b0: ded6 4704 fae4 a0e7 e310 d2f5 ed01 fef1
000000c0: 3135 f6ea 0f58 0d03 e9f6 1e2f 02d5 24ac
000000d0: 0810 1a29 24c7 dca1 0bf0 12d5 2f55 16f6
000000e0: c5f7 9907 0ece 26dc 3ef5 b247 ae04 cf24
000000f0: 1105 f515 0956 e7ec 1208 0ce3 56d3 06a1

model/conv2d_50/Conv2D i1 [96, 1, 1, 96]
4 21 26 -19 -8 -30 27 1
31 16 61 -38 -10 20 0 -13
-52 35 23 15 -10 -17 19 9
6 -8 -22 -14 28 -26 34 -31
-3 44 -8 50 8 13 -80 4
41 -17 -3 4 -9 -9 -13 -13
66 6 6 6 -44 -65 39 -27
26 16 1 14 -127 -4 -31 32
44 -11 -50 31 11 41 -92 -14
46 9 48 -12 -36 6 -12 6
85 6 -33 -42 0 16 26 -21
-23 -5 10 -26 69 -40 14 54
26 3 127 -75 5 -20 -1 -21
12 21 3 -10 1 -24 -22 -7
34 -45 -38 -1 -7 -42 18 13
-18 -13 20 37 16 47 -4 -1
4 1 34 31 -40 -6 40 -19
-38 -5 1 8 -57 15 -32 34
0 -14 2 -4 52 15 17 -10
0 18 16 -8 -2 -34 -7 27
32 -17 23 44 41 -12 -26 -13
-19 -3 -4 -22 -3 21 8 -47
4 -6 -1 9 -18 -3 25 42
-9 13 18 33 -58 22 25 14
5 -7 36 -5 9 0 3 7
4 -7 21 -2 4 -8 -6 -2
1 5 5 -9 -12 12 3 -4
-2 -17 -3 7 -15 -15 -10 8
8 5 7 -23 -9 -25 1 -22
-6 0 29 8 -35 -38 -27 9
-11 11 -13 -25 -7 10 15 -22
-16 -4 11 -10 -127 2 0 -23
00000000: 0415 1aed f8e2 1b01 1f10 3dda f614 00f3
00000010: cc23 170f f6ef 1309 06f8 eaf2 1ce6 22e1
00000020: fd2c f832 080d b004 29ef fd04 f7f7 f3f3
00000030: 4206 0606 d4bf 27e5 1a10 010e 81fc e120
00000040: 2cf5 ce1f 0b29 a4f2 2e09 30f4 dc06 f406
00000050: 5506 dfd6 0010 1aeb e9fb 0ae6 45d8 0e36
00000060: 1a03 7fb5 05ec ffeb 0c15 03f6 01e8 eaf9
00000070: 22d3 daff f9d6 120d eef3 1425 102f fcff
00000080: 0401 221f d8fa 28ed dafb 0108 c70f e022
00000090: 00f2 02fc 340f 11f6 0012 10f8 fede f91b
000000a0: 20ef 172c 29f4 e6f3 edfd fcea fd15 08d1
000000b0: 04fa ff09 eefd 192a f70d 1221 c616 190e
000000c0: 05f9 24fb 0900 0307 04f9 15fe 04f8 fafe
000000d0: 0105 05f7 f40c 03fc feef fd07 f1f1 f608
000000e0: 0805 07e9 f7e7 01ea fa00 1d08 ddda e509
000000f0: f50b f3e7 f90a 0fea f0fc 0bf6 8102 00e9

model/batch_normalization_74/FusedBatchNormV3;model/depthwise_conv2d_24/depthwise;model/conv2d_51/Conv2D i1 [1, 5, 5, 96]
66 -48 -34 79 -2 -59 5 -84
-5 -7 5 2 1 -23 0 3
-50 26 11 37 -2 14 -3 -4
-9 -5 -10 29 5 5 5 -105
44 5 -18 -35 -6 9 -37 13
-5 16 17 -16 -127 27 9 -74
-3 -64 11 -13 7 18 8 0
0 0 -45 -9 2 -31 -36 -18
-2 -20 41 36 -1 -13 -19 -16
-2 -9 -12 -11 113 22 -1 -41
-4 0 59 -15 12 -122 -7 7
16 35 -3 -31 17 -54 -2 21
-2 -51 74 -39 20 30 -1 -52
0 2 4 4 -1 52 -6 9
-33 3 29 -14 -13 -25 12 27
0 -24 -30 31 21 23 18 -49
77 5 3 -24 -3 -11 -43 -9
-48 12 21 32 -14 14 -38 -31
14 -20 -7 -9 -82 38 -2 -10
-10 -1 -4 -32 -1 -9 -46 36
8 42 21 82 -30 -4 -11 -70
13 16 -2 -25 73 120 -2 -44
-14 -21 -11 10 12 -113 -10 -6
8 -23 -2 7 1 -28 -15 28
31 -29 -15 -61 47 59 -20 -90
59 7 20 -10 9 29 35 -73
-28 86 75 32 -3 -65 67 88
-2 27 -3 -50 127 97 -18 -19
-86 -49 41 60 -52 0 82 -29
-72 13 -48 53 15 -10 -63 42
-20 -57 11 -2 -7 58 -40 19
104 -20 127 -10 4 127 62 56
00000000: 42d0 de4f fec5 05ac fbf9 0502 01e9 0003
00000010: ce1a 0b25 fe0e fdfc f7fb f61d 0505 0597
00000020: 2c05 eedd fa09 db0d fb10 11f0 811b 09b6
00000030: fdc0 0bf3 0712 0800 0000 d3f7 02e1 dcee
00000040: feec 2924 fff3 edf0 fef7 f4f5 7116 ffd7
00000050: fc00 3bf1 0c86 f907 1023 fde1 11ca fe15
00000060: fecd 4ad9 141e ffcc 0002 0404 ff34 fa09
00000070: df03 1df2 f3e7 0c1b 00e8 e21f 1517 12cf
00000080: 4d05 03e8 fdf5 d5f7 d00c 1520 f20e dae1
00000090: 0eec f9f7 ae26 fef6 f6ff fce0 fff7 d224
000000a0: 082a 1552 e2fc f5ba 0d10 fee7 4978 fed4
000000b0: f2eb f50a 0c8f f6fa 08e9 fe07 01e4 f11c
000000c0: 1fe3 f1c3 2f3b eca6 3b07 14f6 091d 23b7
000000d0: e456 4b20 fdbf 4358 fe1b fdce 7f61 eeed
000000e0: aacf 293c cc00 52e3 b80d d035 0ff6 c12a
000000f0: ecc7 0bfe f93a d813 68ec 7ff6 047f 3e38

model/conv2d_49/Conv2D i1 [96, 1, 1, 192]
8 34 -108 -14 -14 -20 -21 38
45 22 24 51 69 78 30 44
12 30 -16 25 -33 -21 4 26
9 1 -60 91 -4 14 1 31
9 17 25 -4 35 86 118 -20
27 -36 127 4 55 -2 -9 -12
7 -25 4 -11 -1 5 -6 -21
-71 -11 2 -12 -16 -20 -27 -19
-25 -13 37 4 15 9 2 -31
0 -13 8 2 -29 -13 6 7
11 -35 37 -6 0 -31 -62 -32
5 -1 -51 15 -17 -26 -1 -5
-30 -17 20 5 -17 -10 5 5
-25 5 -22 -5 -11 -21 28 12
-38 13 1 -24 -26 15 -22 -21
5 -19 -7 18 -23 17 5 -4
-1 -53 27 -29 -9 -15 -42 -14
-3 -21 -26 -1 -8 -22 -6 -4
-49 -15 -36 -46 5 -8 -1 33
-10 -27 19 44 -28 -12 -35 16
-38 -24 -43 -51 -46 44 -54 -2
61 -48 23 30 16 11 -29 23
22 -76 9 -24 -92 34 15 11
14 -67 41 -56 53 -5 -27 -35
-22 56 4 6 -8 19 -39 0
63 -16 60 -7 -29 22 51 -23
-13 44 -54 -39 -36 5 15 6
42 50 12 85 22 -1 -4 -9
-60 -50 9 -6 0 -59 8 19
21 -10 33 -22 -7 -73 -24 24
25 18 -2 -4 16 23 24 28
18 29 26 10 14 -1 15 22
00000000: 0822 94f2 f2ec eb26 2d16 1833 454e 1e2c
00000010: 0c1e f019 dfeb 041a 0901 c45b fc0e 011f
00000020: 0911 19fc 2356 76ec 1bdc 7f04 37fe f7f4
00000030: 07e7 04f5 ff05 faeb b9f5 02f4 f0ec e5ed
00000040: e7f3 2504 0f09 02e1 00f3 0802 e3f3 0607
00000050: 0bdd 25fa 00e1 c2e0 05ff cd0f efe6 fffb
00000060: e2ef 1405 eff6 0505 e705 eafb f5eb 1c0c
00000070: da0d 01e8 e60f eaeb 05ed f912 e911 05fc
00000080: ffcb 1be3 f7f1 d6f2 fdeb e6ff f8ea fafc
00000090: cff1 dcd2 05f8 ff21 f6e5 132c e4f4 dd10
000000a0: dae8 d5cd d22c cafe 3dd0 171e 100b e317
000000b0: 16b4 09e8 a422 0f0b 0ebd 29c8 35fb e5dd
000000c0: ea38 0406 f813 d900 3ff0 3cf9 e316 33e9
000000d0: f32c cad9 dc05 0f06 2a32 0c55 16ff fcf7
000000e0: c4ce 09fa 00c5 0813 15f6 21ea f9b7 e818
000000f0: 1912 fefc 1017 181c 121d 1a0a 0eff 0f16

model/conv2d_48/Conv2D i1 [48, 1, 1, 224]
-27 -52 -19 -2 16 1 58 -71
21 -6 6 34 3 -45 9 16
-41 -9 -22 68 41 -4 -67 1
54 47 -1 32 -90 31 11 -47
-28 -13 -8 -23 -5 47 -45 0
92 34 4 -10 -16 -15 43 30
-5 53 43 3 10 -16 61 -29
18 11 56 -7 9 9 -68 8
5 -2 -57 -17 -21 12 -51 -2
7 20 44 8 2 5 22 19
-33 56 25 9 -47 9 -19 -30
-14 -76 -112 24 116 9 56 -32
127 27 -16 -12 15 -34 36 4
-7 31 4 -67 -12 3 11 -21
33 5 -65 -16 -7 21 30 34
-26 -7 -64 -85 46 2 68 24
1 23 -34 19 45 26 52 62
-60 -28 26 -15 -14 57 39 -43
5 68 -57 92 72 -18 16 7
27 -68 3 4 29 -64 -13 -26
9 88 25 2 -28 13 49 -61
-8 55 52 -6 45 67 -24 15
-46 -34 52 -24 -31 -25 20 1
-15 32 -24 7 -58 7 19 -20
10 -35 58 105 28 16 -45 21
30 -35 52 -12 -22 -11 -94 -27
-34 -13 8 -38 0 -14 -14 -24
-45 66 17 -25 6 5 32 58
-16 -14 56 23 -74 5 -67 -28
-7 -59 -44 18 -24 64 57 -23
60 -25 17 -2 -83 27 -12 7
-43 -10 36 -93 -11 -6 8 38
00000000: e5cc edfe 1001 3ab9 15fa 0622 03d3 0910
00000010: d7f7 ea44 29fc bd01 362f ff20 a61f 0bd1
00000020: e4f3 f8e9 fb2f d300 5c22 04f6 f0f1 2b1e
00000030: fb35 2b03 0af0 3de3 120b 38f9 0909 bc08
00000040: 05fe c7ef eb0c cdfe 0714 2c08 0205 1613
00000050: df38 1909 d109 ede2 f2b4 9018 7409 38e0
00000060: 7f1b f0f4 0fde 2404 f91f 04bd f403 0beb
00000070: 2105 bff0 f915 1e22 e6f9 c0ab 2e02 4418
00000080: 0117 de13 2d1a 343e c4e4 1af1 f239 27d5
00000090: 0544 c75c 48ee 1007 1bbc 0304 1dc0 f3e6
000000a0: 0958 1902 e40d 31c3 f837 34fa 2d43 e80f
000000b0: d2de 34e8 e1e7 1401 f120 e807 c607 13ec
000000c0: 0add 3a69 1c10 d315 1edd 34f4 eaf5 a2e5
000000d0: def3 08da 00f2 f2e8 d342 11e7 0605 203a
000000e0: f0f2 3817 b605 bde4 f9c5 d412 e840 39e9
000000f0: 3ce7 11fe ad1b f407 d5f6 24a3 f5fa 0826

model/batch_normalization_71/FusedBatchNormV3;model/depthwise_conv2d_23/depthwise i1 [1, 3, 3, 224]
-37 25 -8 37 10 9 74 55
28 74 51 -33 65 116 -60 -70
-22 15 14 45 27 -127 -15 92
41 -2 23 29 -26 55 126 17
-98 14 34 -41 -109 29 -71 37
-54 -75 21 91 67 -104 33 54
96 17 42 -19 -2 20 6 -79
102 -22 19 -30 52 32 1 13
63 -5 31 8 76 73 56 69
-67 -14 24 30 69 14 74 2
-10 -9 -30 -46 115 -21 -38 -25
93 -74 81 19 97 9 -109 -118
15 -8 7 -87 -87 1 73 25
-2 -27 13 12 40 -31 45 -93
127 40 109 119 3 48 117 8
127 -6 27 16 10 3 81 -20
81 67 -110 -4 29 -66 8 41
16 -6 8 -42 48 -28 16 -27
-27 -11 81 70 127 118 79 -17
72 6 127 44 111 -96 66 -7
60 -7 76 85 9 65 34 91
-93 -13 11 103 4 8 13 -63
-127 -48 64 63 -10 103 33 -23
21 45 49 -5 -16 107 8 40
-38 -19 -37 -37 -31 51 110 85
42 21 73 68 12 -5 -4 0
-54 127 56 127 -8 -4 8 69
29 8 -16 67 83 6 12 73
37 127 -28 127 127 -13 115 1
127 40 86 -43 127 127 8 44
-49 -75 -19 62 19 91 28 -20
101 -1 6 110 -118 85 127 97
00000000: db19 f825 0a09 4a37 1c4a 33df 4174 c4ba
00000010: ea0f 0e2d 1b81 f15c 29fe 171d e637 7e11
00000020: 9e0e 22d7 931d b925 cab5 155b 4398 2136
00000030: 6011 2aed fe14 06b1 66ea 13e2 3420 010d
00000040: 3ffb 1f08 4c49 3845 bdf2 181e 450e 4a02
00000050: f6f7 e2d2 73eb dae7 5db6 5113 6109 938a
00000060: 0ff8 07a9 a901 4919 fee5 0d0c 28e1 2da3
00000070: 7f28 6d77 0330 7508 7ffa 1b10 0a03 51ec
00000080: 5143 92fc 1dbe 0829 10fa 08d6 30e4 10e5
00000090: e5f5 5146 7f76 4fef 4806 7f2c 6fa0 42f9
000000a0: 3cf9 4c55 0941 225b a3f3 0b67 0408 0dc1
000000b0: 81d0 403f f667 21e9 152d 31fb f06b 0828
000000c0: daed dbdb e133 6e55 2a15 4944 0cfb fc00
000000d0: ca7f 387f f8fc 0845 1d08 f043 5306 0c49
000000e0: 257f e47f 7ff3 7301 7f28 56d5 7f7f 082c
000000f0: cfb5 ed3e 135b 1cec 65ff 066e 8a55 7f61

model/conv2d_47/Conv2D i1 [224, 1, 1, 48]
10 37 -4 65 12 10 40 31
62 -10 28 25 -1 -7 3 77
63 10 18 -34 -75 27 31 28
3 -64 127 10 -40 -70 -9 -2
3 -3 -13 -38 -7 43 -2 8
-36 -8 -34 27 16 8 -2 33
14 -13 -17 -41 33 26 -34 56
-88 53 78 84 9 6 51 32
-53 -46 -23 -43 4 100 -48 54
-40 20 40 74 -27 3 14 55
87 8 -60 10 22 -44 -101 47
-49 68 22 -127 2 61 67 24
60 -115 33 -90 -14 55 9 -52
-33 40 14 31 -36 -22 24 55
51 15 18 13 -22 -8 22 -26
42 -62 75 -47 1 104 -32 15
32 6 -127 -68 8 -12 -70 -82
19 82 -1 44 -30 -33 90 46
-11 -3 54 -21 -6 25 12 79
1 -37 -3 67 76 -34 -92 -59
-86 37 87 51 25 127 -14 -21
-12 24 26 47 -22 -15 -58 2
34 -57 14 -14 15 34 9 4
-28 5 -32 -3 8 -38 6 -19
53 -24 -15 3 -55 -101 63 -37
-8 18 5 -16 -22 -33 24 -8
20 28 70 -14 -67 96 -63 -23
-92 100 -27 -8 -16 127 -73 17
18 2 -20 18 3 5 -61 12
-3 -25 13 32 -11 24 8 17
-98 -41 122 -28 5 29 17 -29
23 4 75 35 26 -7 -19 -22
00000000: 0a25 fc41 0c0a 281f 3ef6 1c19 fff9 034d
00000010: 3f0a 12de b51b 1f1c 03c0 7f0a d8ba f7fe
00000020: 03fd f3da f92b fe08 dcf8 de1b 1008 fe21
00000030: 0ef3 efd7 211a de38 a835 4e54 0906 3320
00000040: cbd2 e9d5 0464 d036 d814 284a e503 0e37
00000050: 5708 c40a 16d4 9b2f cf44 1681 023d 4318
00000060: 3c8d 21a6 f237 09cc df28 0e1f dcea 1837
00000070: 330f 120d eaf8 16e6 2ac2 4bd1 0168 e00f
00000080: 2006 81bc 08f4 baae 1352 ff2c e2df 5a2e
00000090: f5fd 36eb fa19 0c4f 01db fd43 4cde a4c5
000000a0: aa25 5733 197f f2eb f418 1a2f eaf1 c602
000000b0: 22c7 0ef2 0f22 0904 e405 e0fd 08da 06ed
000000c0: 35e8 f103 c99b 3fdb f812 05f0 eadf 18f8
000000d0: 141c 46f2 bd60 c1e9 a464 e5f8 f07f b711
000000e0: 1202 ec12 0305 c30c fde7 0d20 f518 0811
000000f0: 9ed7 7ae4 051d 11e3 1704 4b23 1af9 edea

model/conv2d_46/Conv2D i1 [48, 1, 1, 224]
-27 19 -17 14 -8 -22 -20 7
-12 51 16 1 0 17 8 -1
-20 -4 -8 69 -24 -2 58 -19
0 -39 15 34 -44 30 -81 0
-36 38 91 -11 18 -49 43 -111
-64 1 7 18 29 32 78 -46
53 3 -7 33 -14 -3 42 -11
25 -1 19 -34 -51 23 54 43
1 27 -10 -37 19 -11 51 27
16 66 16 14 -31 11 -43 -53
40 -98 6 127 3 -10 -49 15
-41 -3 -25 -32 -61 -20 47 43
-2 17 -3 -12 35 -21 -33 -24
-66 -22 -5 -5 22 3 -24 42
35 -3 -57 50 45 -44 57 -7
45 -23 -75 54 -27 13 -15 21
-44 8 54 9 29 -51 -14 38
58 -1 5 4 -11 -4 -5 -78
77 21 -27 -26 -33 -20 -43 42
47 65 56 -23 51 37 0 -22
-3 4 -22 -9 55 -15 56 38
-38 18 10 25 0 45 24 64
-27 10 -11 22 -1 -2 -29 34
13 -70 25 69 -23 -19 82 -33
12 -22 -25 -42 -11 42 -23 22
-49 -3 5 -46 23 36 -16 -32
13 -5 -26 9 -37 52 23 -21
-3 14 50 36 -53 57 42 46
-63 -7 -53 27 -58 -12 -15 -44
75 -44 49 -64 43 4 -42 -31
5 -8 41 17 55 42 -31 37
17 -8 -8 3 -32 19 -53 13
00000000: e513 ef0e f8ea ec07 f433 1001 0011 08ff
00000010: ecfc f845 e8fe 3aed 00d9 0f22 d41e af00
00000020: dc26 5bf5 12cf 2b91 c001 0712 1d20 4ed2
00000030: 3503 f921 f2fd 2af5 19ff 13de cd17 362b
00000040: 011b f6db 13f5 331b 1042 100e e10b d5cb
00000050: 289e 067f 03f6 cf0f d7fd e7e0 c3ec 2f2b
00000060: fe11 fdf4 23eb dfe8 beea fbfb 1603 e82a
00000070: 23fd c732 2dd4 39f9 2de9 b536 e50d f115
00000080: d408 3609 1dcd f226 3aff 0504 f5fc fbb2
00000090: 4d15 e5e6 dfec d52a 2f41 38e9 3325 00ea
000000a0: fd04 eaf7 37f1 3826 da12 0a19 002d 1840
000000b0: e50a f516 fffe e322 0dba 1945 e9ed 52df
000000c0: 0cea e7d6 f52a e916 cffd 05d2 1724 f0e0
000000d0: 0dfb e609 db34 17eb fd0e 3224 cb39 2a2e
000000e0: c1f9 cb1b c6f4 f1d4 4bd4 31c0 2b04 d6e1
000000f0: 05f8 2911 372a e125 11f8 f803 e013 cb0d

model/batch_normalization_68/FusedBatchNormV3;model/depthwise_conv2d_22/depthwise;model/depthwise_conv2d_23/depthwise i1 [1, 3, 3, 224]
74 93 91 117 12 99 27 83
26 -36 -44 40 20 94 23 -40
-112 -4 66 88 -83 56 -36 127
8 -98 25 -5 19 -88 4 -42
28 -6 1 82 60 1 3 102
-22 107 41 125 92 -2 -63 -38
-8 9 -11 -92 -18 56 82 51
-127 14 26 127 8 10 -73 42
113 -63 1 -10 71 -105 39 42
-2 -61 -66 -52 127 4 -61 -4
63 -81 43 58 7 -11 -20 44
-18 -20 -41 127 118 20 -72 55
-61 62 127 38 3 1 -19 75
10 7 -3 9 49 11 44 -78
-60 55 30 28 -61 31 0 -127
-96 38 -12 13 68 -27 59 62
107 34 24 38 -18 -22 33 -44
-2 50 40 -12 -32 8 -3 -2
-74 -127 14 -126 -6 -18 56 82
-89 41 40 26 110 101 98 -17
-2 6 57 40 -40 -127 23 127
0 106 -24 70 5 -112 113 89
-8 127 5 36 102 16 87 127
106 6 23 -13 -28 91 116 9
19 78 -51 15 -20 -34 -32 -38
30 75 9 32 -31 35 72 8
37 27 -44 -15 -19 29 -11 -83
10 -20 88 -9 -30 28 -11 127
127 74 16 -102 -77 -24 63 127
-32 64 25 45 34 127 -41 -127
-90 -44 99 -23 -22 51 -127 122
-15 -111 13 18 3 -21 76 52
00000000: 4a5d 5b75 0c63 1b53 1adc d428 145e 17d8
00000010: 90fc 4258 ad38 dc7f 089e 19fb 13a8 04d6
00000020: 1cfa 0152 3c01 0366 ea6b 297d 5cfe c1da
00000030: f809 f5a4 ee38 5233 810e 1a7f 080a b72a
00000040: 71c1 01f6 4797 272a fec3 becc 7f04 c3fc
00000050: 3faf 2b3a 07f5 ec2c eeec d77f 7614 b837
00000060: c33e 7f26 0301 ed4b 0a07 fd09 310b 2cb2
00000070: c437 1e1c c31f 0081 a026 f40d 44e5 3b3e
00000080: 6b22 1826 eeea 21d4 fe32 28f4 e008 fdfe
00000090: b681 0e82 faee 3852 a729 281a 6e65 62ef
000000a0: fe06 3928 d881 177f 006a e846 0590 7159
000000b0: f87f 0524 6610 577f 6a06 17f3 e45b 7409
000000c0: 134e cd0f ecde e0da 1e4b 0920 e123 4808
000000d0: 251b d4f1 ed1d f5ad 0aec 58f7 e21c f57f
000000e0: 7f4a 109a b3e8 3f7f e040 192d 227f d781
000000f0: a6d4 63e9 ea33 817a f191 0d12 03eb 4c34

model/conv2d_45/Conv2D i1 [224, 1, 1, 48]
52 -15 76 76 -25 27 -74 -39
33 -75 -22 50 -11 42 -78 33
127 24 -19 29 17 17 -53 14
-34 17 29 -39 99 10 80 10
34 16 3 60 -16 58 19 46
-58 -3 22 -67 -35 -54 -52 -92
-58 100 52 -68 -28 127 52 0
18 -87 39 33 -2 27 -40 -51
10 83 42 -47 -37 -42 -75 -14
13 9 -8 14 33 -31 -15 68
-32 51 -24 -1 91 -18 -22 -42
-12 -4 -15 20 -28 -13 -10 20
-31 -7 75 19 79 -80 -37 122
13 -24 36 -18 32 63 21 -8
-84 23 -21 79 1 -21 21 -117
49 -52 -30 -95 -14 -47 14 -26
-40 40 -58 32 72 -27 -127 27
-100 20 65 43 -34 -5 70 17
-38 -1 -29 23 27 -31 118 -52
-10 6 -3 -45 -62 -7 96 113
-8 2 -27 -23 -63 -79 48 28
-86 -7 -127 21 -48 39 2 76
-18 13 32 -64 -32 -29 -1 4
-32 -20 7 70 44 27 -1 38
39 -60 49 2 52 22 15 29
-49 -37 -28 -92 8 127 20 -68
-49 14 -79 -22 60 -69 -29 -19
-44 -31 30 -20 52 -25 -56 18
50 -6 55 108 -91 21 -13 16
37 67 25 -56 81 -41 -36 39
-21 -6 45 50 22 65 -31 42
-47 -24 35 -74 -66 20 25 -25
00000000: 34f1 4c4c e71b b6d9 21b5 ea32 f52a b221
00000010: 7f18 ed1d 1111 cb0e de11 1dd9 630a 500a
00000020: 2210 033c f03a 132e c6fd 16bd ddca cca4
00000030: c664 34bc e47f 3400 12a9 2721 fe1b d8cd
00000040: 0a53 2ad1 dbd6 b5f2 0d09 f80e 21e1 f144
00000050: e033 e8ff 5bee ead6 f4fc f114 e4f3 f614
00000060: e1f9 4b13 4fb0 db7a 0de8 24ee 203f 15f8
00000070: ac17 eb4f 01eb 158b 31cc e2a1 f2d1 0ee6
00000080: d828 c620 48e5 811b 9c14 412b defb 4611
00000090: daff e317 1be1 76cc f606 fdd3 c2f9 6071
000000a0: f802 e5e9 c1b1 301c aaf9 8115 d027 024c
000000b0: ee0d 20c0 e0e3 ff04 e0ec 0746 2c1b ff26
000000c0: 27c4 3102 3416 0f1d cfdb e4a4 087f 14bc
000000d0: cf0e b1ea 3cbb e3ed d4e1 1eec 34e7 c812
000000e0: 32fa 376c a515 f310 2543 19c8 51d7 dc27
000000f0: ebfa 2d32 1641 e12a d1e8 23b6 be14 19e7

model/conv2d_44/Conv2D i1 [48, 1, 1, 224]
-27 12 67 78 6 -8 87 65
1 -25 79 -42 37 -2 -88 -40
-12 -96 26 21 28 93 -18 10
-55 31 41 -45 -23 4 -8 -16
-30 8 15 20 -65 -34 -31 -34
-74 76 -72 13 27 17 9 -127
-8 19 9 108 40 10 -22 70
54 78 -17 -37 -42 -59 -28 -54
-34 11 -14 25 64 -38 11 -49
-8 15 -16 -31 -16 33 16 -87
-4 -51 -8 -4 -36 77 -17 24
-70 4 11 14 -11 33 75 13
-34 16 -18 -28 -83 21 -57 11
-37 88 -7 55 -97 84 3 -62
-51 18 13 -19 105 -11 33 -24
-3 6 60 7 1 -7 17 15
-102 27 10 -11 -66 9 19 -37
25 -9 -16 22 28 4 10 13
-16 64 2 29 9 -72 -4 -5
-20 3 -73 -65 -42 -61 -43 -21
10 0 -12 20 13 3 38 -61
57 30 -76 64 16 -29 45 74
2 81 -36 67 -3 33 23 100
4 -5 -66 2 6 -11 -49 -28
79 27 65 -102 -34 71 15 -7
5 32 66 106 5 -72 0 2
48 52 -46 5 -56 4 37 3
-84 32 -64 39 8 -17 10 49
-101 45 -76 -77 -49 -2 -49 -46
-27 -24 -2 -1 -4 -39 102 -42
42 -5 21 -127 5 -2 20 6
21 -32 -59 33 5 -26 -33 -3
00000000: e50c 434e 06f8 5741 01e7 4fd6 25fe a8d8
00000010: f4a0 1a15 1c5d ee0a c91f 29d3 e904 f8f0
00000020: e208 0f14 bfde e1de b64c b80d 1b11 0981
00000030: f813 096c 280a ea46 364e efdb d6c5 e4ca
00000040: de0b f219 40da 0bcf f80f f0e1 f021 10a9
00000050: fccd f8fc dc4d ef18 ba04 0b0e f521 4b0d
00000060: de10 eee4 ad15 c70b db58 f937 9f54 03c2
00000070: cd12 0ded 69f5 21e8 fd06 3c07 01f9 110f
00000080: 9a1b 0af5 be09 13db 19f7 f016 1c04 0a0d
00000090: f040 021d 09b8 fcfb ec03 b7bf d6c3 d5eb
000000a0: 0a00 f414 0d03 26c3 391e b440 10e3 2d4a
000000b0: 0251 dc43 fd21 1764 04fb be02 06f5 cfe4
000000c0: 4f1b 419a de47 0ff9 0520 426a 05b8 0002
000000d0: 3034 d205 c804 2503 ac20 c027 08ef 0a31
000000e0: 9b2d b4b3 cffe cfd2 e5e8 feff fcd9 66d6
000000f0: 2afb 1581 05fe 1406 15e0 c521 05e6 dffd

model/batch_normalization_65/FusedBatchNormV3;model/depthwise_conv2d_21/depthwise;model/depthwise_conv2d_23/depthwise i1 [1, 3, 3, 224]
34 -34 1 13 127 -64 12 -60
80 2 52 15 105 104 49 32
8 116 16 16 -12 -12 -12 19
24 -98 -13 -60 60 65 8 -1
120 -7 23 -37 112 57 7 -99
-70 -19 -38 6 62 40 122 86
-83 -5 127 20 63 4 -127 17
-21 2 44 -19 -26 73 -21 23
-39 -4 59 14 72 36 11 -3
127 19 43 97 16 13 81 69
-1 28 127 -127 104 9 3 53
-56 -34 -34 127 17 28 119 44
-127 54 46 44 -46 -1 -96 48
113 68 25 -35 127 68 31 -6
23 -16 55 25 18 -22 -59 20
59 -6 67 57 -22 -14 27 12
5 -20 28 -2 86 127 -97 56
97 -9 -61 88 105 22 53 -27
52 71 10 -60 70 32 21 56
47 -120 14 66 12 -37 -127 100
8 54 -127 99 36 -68 96 -122
35 57 -52 -86 34 41 127 -62
24 42 -32 10 52 18 121 1
8 21 108 -11 3 33 64 -60
-39 39 -86 53 109 -104 -80 -17
104 41 20 -17 1 13 -78 13
-5 -102 113 -20 56 3 26 90
55 53 46 -41 -112 -9 33 122
127 -127 9 -127 92 14 87 -22
25 31 -51 49 14 72 -18 66
62 127 -40 127 3 -8 -15 -5
-2 -83 -20 -45 127 38 93 46
00000000: 22de 010d 7fc0 0cc4 5002 340f 6968 3120
00000010: 0874 1010 f4f4 f413 189e f3c4 3c41 08ff
00000020: 78f9 17db 7039 079d baed da06 3e28 7a56
00000030: adfb 7f14 3f04 8111 eb02 2ced e649 eb17
00000040: d9fc 3b0e 4824 0bfd 7f13 2b61 100d 5145
00000050: ff1c 7f81 6809 0335 c8de de7f 111c 772c
00000060: 8136 2e2c d2ff a030 7144 19dd 7f44 1ffa
00000070: 17f0 3719 12ea c514 3bfa 4339 eaf2 1b0c
00000080: 05ec 1cfe 567f 9f38 61f7 c358 6916 35e5
00000090: 3447 0ac4 4620 1538 2f88 0e42 0cdb 8164
000000a0: 0836 8163 24bc 6086 2339 ccaa 2229 7fc2
000000b0: 182a e00a 3412 7901 0815 6cf5 0321 40c4
000000c0: d927 aa35 6d98 b0ef 6829 14ef 010d b20d
000000d0: fb9a 71ec 3803 1a5a 3735 2ed7 90f7 217a
000000e0: 7f81 0981 5c0e 57ea 191f cd31 0e48 ee42
000000f0: 3e7f d87f 03f8 f1fb fead ecd3 7f26 5d2e

model/conv2d_43/Conv2D i1 [224, 1, 1, 48]
-15 -57 57 31 -77 -103 -45 10
77 47 3 -112 82 28 -42 -9
9 56 46 -6 18 -9 -79 -45
96 -40 113 86 30 66 12 17
7 -127 84 59 -27 -24 -71 -54
-63 -28 12 -16 -19 -18 -53 41
69 7 -36 75 18 -34 -6 27
-13 42 -115 16 18 61 -6 11
-7 -35 31 -24 56 22 -57 -2
6 53 21 -23 -37 -19 28 -56
44 -64 7 84 43 -10 -117 -20
-12 89 16 -85 -47 87 127 110
-48 -53 -26 46 -19 47 -86 55
33 -127 10 20 -85 8 29 -32
28 19 -12 5 37 -27 121 48
0 31 -12 -68 61 -92 4 52
71 -48 91 6 41 29 29 -17
-5 -34 36 10 -13 11 58 11
29 -5 -10 -26 0 -63 -18 -11
41 20 58 -13 26 17 -46 8
4 58 15 16 -89 -69 71 19
-72 127 80 24 -6 -12 -23 -17
-94 24 -30 35 12 -51 0 -47
-27 40 5 -29 63 -20 2 37
-127 -3 23 -65 -39 28 -97 -20
8 -30 -1 -25 59 66 -126 -22
-16 -5 -20 -38 39 -16 51 84
-32 37 27 6 -19 -34 -68 48
-73 -23 -36 -115 59 -47 -73 -1
85 91 -13 -36 35 2 51 -104
48 -25 19 -69 -2 11 -110 -15
-62 -55 -22 -57 -8 -22 40 41
00000000: f1c7 391f b399 d30a 4d2f 0390 521c d6f7
00000010: 0938 2efa 12f7 b1d3 60d8 7156 1e42 0c11
00000020: 0781 543b e5e8 b9ca c1e4 0cf0 edee cb29
00000030: 4507 dc4b 12de fa1b f32a 8d10 123d fa0b
00000040: f9dd 1fe8 3816 c7fe 0635 15e9 dbed 1cc8
00000050: 2cc0 0754 2bf6 8bec f459 10ab d157 7f6e
00000060: d0cb e62e ed2f aa37 2181 0a14 ab08 1de0
00000070: 1c13 f405 25e5 7930 001f f4bc 3da4 0434
00000080: 47d0 5b06 291d 1def fbde 240a f30b 3a0b
00000090: 1dfb f6e6 00c1 eef5 2914 3af3 1a11 d208
000000a0: 043a 0f10 a7bb 4713 b87f 5018 faf4 e9ef
000000b0: a218 e223 0ccd 00d1 e528 05e3 3fec 0225
000000c0: 81fd 17bf d91c 9fec 08e2 ffe7 3b42 82ea
000000d0: f0fb ecda 27f0 3354 e025 1b06 edde bc30
000000e0: b7e9 dc8d 3bd1 b7ff 555b f3dc 2302 3398
000000f0: 30e7 13bb fe0b 92f1 c2c9 eac7 f8ea 2829

model/conv2d_42/Conv2D i1 [48, 1, 1, 224]
40 -9 -9 -48 12 28 -24 81
14 43 -111 26 -22 55 -13 -3
-39 19 -34 -25 50 -75 -65 73
-4 4 29 -2 18 17 31 -8
-18 6 97 42 -10 90 -69 16
-6 -40 -29 -59 14 -15 36 31
-88 -70 31 -47 10 -52 30 -110
4 -16 0 13 -17 10 22 22
8 6 18 -68 39 -13 -34 -17
77 -37 -63 22 -3 69 2 35
37 -28 18 -18 -66 -76 3 55
-31 -20 3 -66 14 -56 70 -33
87 -92 -54 33 6 80 -3 0
19 8 10 60 -21 -40 -90 17
54 4 26 41 29 -34 -43 35
45 -15 11 22 -44 -34 44 -36
-15 16 21 -52 43 -32 -47 8
77 97 9 -47 -9 40 -9 -62
-61 7 11 -57 24 8 16 -127
7 -19 -32 -46 29 2 -19 30
-79 -9 26 43 1 -29 54 53
-114 -29 6 12 39 -42 -81 34
-38 -25 -30 -23 -66 8 21 48
-43 82 38 -20 -116 -30 40 5
-12 91 60 3 -53 -11 66 17
41 -31 -44 -17 -16 0 -14 -43
-2 -16 -63 -72 10 9 51 21
-83 -4 30 13 10 -73 -48 13
1 -19 1 41 3 17 12 10
0 -29 18 0 -16 -20 -67 40
-31 -49 45 37 -22 -12 1 -1
-54 -31 5 -1 42 14 -31 -81
00000000: 28f7 f7d0 0c1c e851 0e2b 911a ea37 f3fd
00000010: d913 dee7 32b5 bf49 fc04 1dfe 1211 1ff8
00000020: ee06 612a f65a bb10 fad8 e3c5 0ef1 241f
00000030: a8ba 1fd1 0acc 1e92 04f0 000d ef0a 1616
00000040: 0806 12bc 27f3 deef 4ddb c116 fd45 0223
00000050: 25e4 12ee beb4 0337 e1ec 03be 0ec8 46df
00000060: 57a4 ca21 0650 fd00 1308 0a3c ebd8 a611
00000070: 3604 1a29 1dde d523 2df1 0b16 d4de 2cdc
00000080: f110 15cc 2be0 d108 4d61 09d1 f728 f7c2
00000090: c307 0bc7 1808 1081 07ed e0d2 1d02 ed1e
000000a0: b1f7 1a2b 01e3 3635 8ee3 060c 27d6 af22
000000b0: dae7 e2e9 be08 1530 d552 26ec 8ce2 2805
000000c0: f45b 3c03 cbf5 4211 29e1 d4ef f000 f2d5
000000d0: fef0 c1b8 0a09 3315 adfc 1e0d 0ab7 d00d
000000e0: 01ed 0129 0311 0c0a 00e3 1200 f0ec bd28
000000f0: e1cf 2d25 eaf4 01ff cae1 05ff 2a0e e1af

model/batch_normalization_62/FusedBatchNormV3;model/depthwise_conv2d_20/depthwise;model/depthwise_conv2d_23/depthwise i1 [1, 3, 3, 224]
-13 4 54 -26 83 61 -80 -40
127 54 75 -39 18 -60 59 -50
-18 -114 -92 104 -10 -47 16 -127
71 20 -114 39 55 -80 -85 -11
9 7 54 28 -88 43 96 6
-117 4 -1 26 15 -98 124 -21
96 37 -11 -42 -34 -127 -35 -23
123 49 9 4 -88 18 11 -45
-54 68 4 82 -19 3 6 91
-75 24 -35 112 2 -29 25 111
41 -33 -58 40 -78 127 118 -1
76 42 -22 27 61 -2 102 -15
22 5 49 -84 99 -112 5 63
-82 -37 26 39 55 81 -7 -58
3 -34 -59 50 -27 33 -2 117
31 4 -27 2 -11 -18 -5 -6
12 -28 31 -103 100 -51 7 77
14 62 -92 110 127 50 -74 30
95 67 -105 125 80 54 -17 -100
5 83 69 -90 -3 57 7 -41
127 -9 -74 43 -2 -20 3 31
-5 50 -39 32 -39 -27 -47 102
-75 -42 69 -29 57 37 25 127
48 -71 86 43 -4 22 51 14
15 -1 83 74 54 19 21 3
61 20 107 39 -127 -1 72 32
10 98 42 95 10 -78 -68 -2
127 61 127 127 61 -98 31 104
51 -79 100 -127 47 -59 90 -5
-94 -33 127 -57 127 -16 123 -12
-49 -81 -66 90 -30 -127 19 -59
-98 -110 -127 -107 91 3 -58 -100
00000000: f304 36e6 533d b0d8 7f36 4bd9 12c4 3bce
00000010: ee8e a468 f6d1 1081 4714 8e27 37b0 abf5
00000020: 0907 361c a82b 6006 8b04 ff1a 0f9e 7ceb
00000030: 6025 f5d6 de81 dde9 7b31 0904 a812 0bd3
00000040: ca44 0452 ed03 065b b518 dd70 02e3 196f
00000050: 29df c628 b27f 76ff 4c2a ea1b 3dfe 66f1
00000060: 1605 31ac 6390 053f aedb 1a27 3751 f9c6
00000070: 03de c532 e521 fe75 1f04 e502 f5ee fbfa
00000080: 0ce4 1f99 64cd 074d 0e3e a46e 7f32 b61e
00000090: 5f43 977d 5036 ef9c 0553 45a6 fd39 07d7
000000a0: 7ff7 b62b feec 031f fb32 d920 d9e5 d166
000000b0: b5d6 45e3 3925 197f 30b9 562b fc16 330e
000000c0: 0fff 534a 3613 1503 3d14 6b27 81ff 4820
000000d0: 0a62 2a5f 0ab2 bcfe 7f3d 7f7f 3d9e 1f68
000000e0: 33b1 6481 2fc5 5afb a2df 7fc7 7ff0 7bf4
000000f0: cfaf be5a e281 13c5 9e92 8195 5b03 c69c

model/conv2d_41/Conv2D i1 [224, 1, 1, 48]
-78 65 -23 -68 43 -31 -14 12
-25 56 12 51 -93 -49 -39 10
74 2 -10 85 -37 54 -18 113
-127 87 30 54 69 -13 -13 -81
108 -49 20 -60 17 86 -27 -5
-41 -8 73 -20 -11 -79 -15 -74
57 64 -29 19 -50 101 -62 10
22 35 -5 -127 71 24 -93 94
-20 70 -5 -74 -60 55 -16 -6
18 -30 2 24 -7 -103 45 86
11 -6 -81 20 -55 -66 -59 101
-77 -64 -87 -7 -1 55 -31 28
-43 14 53 -10 -76 59 -10 -110
-15 -28 22 -2 75 8 63 76
-61 -89 -21 58 -11 52 14 65
127 16 8 72 -60 -21 1 20
68 89 -14 -29 33 86 111 -115
-92 85 -10 7 -45 -82 -22 101
48 27 68 -63 -70 4 -2 -10
60 52 28 73 38 14 -2 25
13 -14 15 31 11 33 12 -36
-21 -40 -15 -30 12 -23 50 14
-5 19 50 2 -66 -1 127 14
36 -8 16 -12 -46 -79 -3 -1
124 17 33 -61 17 -26 -82 55
17 -25 -104 18 -6 127 -17 70
64 26 -52 19 8 14 -49 -11
78 18 -30 10 -37 -28 61 -18
-86 52 54 -31 -94 103 -61 31
48 -16 112 49 -50 -5 -41 -31
74 73 -9 -13 -40 -17 5 -2
-32 -127 -13 27 57 94 -51 -21
00000000: b241 e9bc 2be1 f20c e738 0c33 a3cf d90a
00000010: 4a02 f655 db36 ee71 8157 1e36 45f3 f3af
00000020: 6ccf 14c4 1156 e5fb d7f8 49ec f5b1 f1b6
00000030: 3940 e313 ce65 c20a 1623 fb81 4718 a35e
00000040: ec46 fbb6 c437 f0fa 12e2 0218 f999 2d56
00000050: 0bfa af14 c9be c565 b3c0 a9f9 ff37 e11c
00000060: d50e 35f6 b43b f692 f1e4 16fe 4b08 3f4c
00000070: c3a7 eb3a f534 0e41 7f10 0848 c4eb 0114
00000080: 4459 f2e3 2156 6f8d a455 f607 d3ae ea65
00000090: 301b 44c1 ba04 fef6 3c34 1c49 260e fe19
000000a0: 0df2 0f1f 0b21 0cdc ebd8 f1e2 0ce9 320e
000000b0: fb13 3202 beff 7f0e 24f8 10f4 d2b1 fdff
000000c0: 7c11 21c3 11e6 ae37 11e7 9812 fa7f ef46
000000d0: 401a cc13 080e cff5 4e12 e20a dbe4 3dee
000000e0: aa34 36e1 a267 c31f 30f0 7031 cefb d7e1
000000f0: 4a49 f7f3 d8ef 05fe e081 f31b 395e cdeb

model/conv2d_40/Conv2D i1 [48, 1, 1, 224]
42 -26 -13 3 19 -18 28 10
7 69 -34 10 30 2 -16 27
-24 8 44 31 -13 4 -15 16
-8 -37 -24 -24 23 -7 3 6
69 34 0 26 40 43 56 30
18 10 38 7 -41 -27 34 -29
75 54 16 -35 -50 -59 2 -61
-12 -6 -34 63 -25 54 -93 -17
-44 38 63 17 12 -41 13 41
-44 -21 55 -17 36 -52 6 22
1 52 -67 57 -68 -54 21 -31
2 -13 25 5 19 56 -9 72
13 78 -24 -13 22 74 59 -18
-13 9 -45 24 69 34 -5 -43
0 -48 -36 54 -80 24 -16 -44
-43 17 33 63 9 28 18 -58
16 12 -9 -10 -28 -9 55 -19
8 -24 16 -1 56 39 -46 -7
8 -5 -5 80 -6 26 40 14
14 20 30 -127 65 36 -30 35
11 -36 14 -73 37 32 26 -4
55 -14 -14 71 -38 90 -23 -5
-89 -17 -31 -44 14 -24 -57 -25
31 -3 -27 -62 21 72 94 61
-67 12 5 -66 46 -53 5 26
-20 28 -7 -55 17 3 31 -34
5 -4 24 26 53 67 67 -9
-8 17 -41 -32 -24 11 22 25
14 49 45 -37 -25 -29 10 -10
23 -18 4 -60 52 74 0 -59
3 19 90 44 -40 -49 -41 5
-9 100 -6 127 -64 15 -98 -6
00000000: 2ae6 f303 13ee 1c0a 0745 de0a 1e02 f01b
00000010: e808 2c1f f304 f110 f8db e8e8 17f9 0306
00000020: 4522 001a 282b 381e 120a 2607 d7e5 22e3
00000030: 4b36 10dd cec5 02c3 f4fa de3f e736 a3ef
00000040: d426 3f11 0cd7 0d29 d4eb 37ef 24cc 0616
00000050: 0134 bd39 bcca 15e1 02f3 1905 1338 f748
00000060: 0d4e e8f3 164a 3bee f309 d318 4522 fbd5
00000070: 00d0 dc36 b018 f0d4 d511 213f 091c 12c6
00000080: 100c f7f6 e4f7 37ed 08e8 10ff 3827 d2f9
00000090: 08fb fb50 fa1a 280e 0e14 1e81 4124 e223
000000a0: 0bdc 0eb7 2520 1afc 37f2 f247 da5a e9fb
000000b0: a7ef e1d4 0ee8 c7e7 1ffd e5c2 1548 5e3d
000000c0: bd0c 05be 2ecb 051a ec1c f9c9 1103 1fde
000000d0: 05fc 181a 3543 43f7 f811 d7e0 e80b 1619
000000e0: 0e31 2ddb e7e3 0af6 17ee 04c4 344a 00c5
000000f0: 0313 5a2c d8cf d705 f764 fa7f c00f 9efa

model/batch_normalization_59/FusedBatchNormV3;model/depthwise_conv2d_19/depthwise;model/depthwise_conv2d_23/depthwise i1 [1, 3, 3, 224]
6 -7 -110 -1 -35 -19 15 62
110 86 52 -65 -75 -28 -93 -22
-46 28 44 31 -3 -11 84 -111
65 2 13 -123 31 -67 11 36
-16 -42 -16 68 -47 -80 -57 -52
64 10 80 6 -25 -52 89 -12
-57 -29 36 36 21 10 0 5
16 1 -64 12 80 -73 111 -34
71 -9 65 -15 59 -114 82 -77
-90 -38 29 -90 65 -27 -29 -71
-127 34 51 -75 -35 28 22 -63
16 7 -67 35 -18 127 -77 -92
-19 26 31 -31 -4 -125 -14 29
38 87 84 84 34 -5 -28 30
124 -51 31 -75 5 56 76 35
106 71 43 84 -29 50 44 -10
-88 9 87 20 28 120 -127 127
31 -104 77 20 1 0 -42 -84
1 -7 -17 50 -2 51 30 23
-63 -17 -26 -27 127 127 19 -20
48 17 -127 -51 55 106 -127 -20
-38 44 -48 -119 126 43 -8 34
-48 -14 36 -81 26 97 28 -28
38 22 77 58 -52 86 -113 2
39 22 7 81 63 61 28 -25
82 -12 -43 36 -29 73 6 57
69 -89 -106 -79 3 -35 55 4
-92 40 23 28 -74 -43 88 6
4 -38 -42 -17 127 11 7 127
-22 127 -52 -104 -127 127 -123 -23
-39 -127 -18 44 -35 -63 13 -125
41 127 -19 -70 127 3 127 127
00000000: 06f9 92ff dded 0f3e 6e56 34bf b5e4 a3ea
00000010: d21c 2c1f fdf5 5491 4102 0d85 1fbd 0b24
00000020: f0d6 f044 d1b0 c7cc 400a 5006 e7cc 59f4
00000030: c7e3 2424 150a 0005 1001 c00c 50b7 6fde
00000040: 47f7 41f1 3b8e 52b3 a6da 1da6 41e5 e3b9
00000050: 8122 33b5 dd1c 16c1 1007 bd23 ee7f b3a4
00000060: ed1a 1fe1 fc83 f21d 2657 5454 22fb e41e
00000070: 7ccd 1fb5 0538 4c23 6a47 2b54 e332 2cf6
00000080: a809 5714 1c78 817f 1f98 4d14 0100 d6ac
00000090: 01f9 ef32 fe33 1e17 c1ef e6e5 7f7f 13ec
000000a0: 3011 81cd 376a 81ec da2c d089 7e2b f822
000000b0: d0f2 24af 1a61 1ce4 2616 4d3a cc56 8f02
000000c0: 2716 0751 3f3d 1ce7 52f4 d524 e349 0639
000000d0: 45a7 96b1 03dd 3704 a428 171c b6d5 5806
000000e0: 04da d6ef 7f0b 077f ea7f cc98 817f 85e9
000000f0: d981 ee2c ddc1 0d83 297f edba 7f03 7f7f

model/conv2d_39/Conv2D i1 [224, 1, 1, 48]
-59 22 -6 -47 20 9 -5 26
17 14 -17 40 34 14 -40 -33
-31 8 50 -58 33 0 -46 20
-9 -25 127 19 -12 -19 -53 -18
15 -59 98 -3 0 23 78 -30
-36 33 5 -38 -22 -23 -7 -97
-5 58 1 -32 4 -13 24 -21
-22 17 37 -7 44 11 20 -17
-29 27 20 -34 22 78 -2 21
-15 -44 87 14 -4 -28 20 6
38 -55 59 -36 28 -1 127 16
9 29 -6 44 -26 -6 20 -13
72 -35 -11 3 -56 -16 0 -40
-55 -80 -3 36 14 80 7 73
-24 8 82 -28 54 -97 -1 22
72 -38 18 -23 -67 -3 -48 4
9 -127 -34 -3 46 -21 -38 -47
13 64 17 14 94 -44 62 -6
16 -88 -9 -12 25 -62 -73 97
3 39 16 -8 38 -3 33 10
43 -81 -26 127 83 -7 1 -21
-29 -57 -24 38 5 -2 20 -31
39 -17 -27 -40 48 51 46 -60
36 -20 -20 11 107 41 64 -59
93 -66 -51 -2 -70 -86 127 26
-41 -20 -11 -21 29 44 36 15
63 -13 26 -8 -22 -39 6 7
-67 95 15 -50 -59 71 18 12
-34 32 -112 23 12 2 -127 -34
15 104 48 53 13 37 46 -18
-76 54 -85 -29 63 -55 2 -28
47 -111 44 -8 -72 -127 -43 -40
00000000: c516 fad1 1409 fb1a 110e ef28 220e d8df
00000010: e108 32c6 2100 d214 f7e7 7f13 f4ed cbee
00000020: 0fc5 62fd 0017 4ee2 dc21 05da eae9 f99f
00000030: fb3a 01e0 04f3 18eb ea11 25f9 2c0b 14ef
00000040: e31b 14de 164e fe15 f1d4 570e fce4 1406
00000050: 26c9 3bdc 1cff 7f10 091d fa2c e6fa 14f3
00000060: 48dd f503 c8f0 00d8 c9b0 fd24 0e50 0749
00000070: e808 52e4 369f ff16 48da 12e9 bdfd d004
00000080: 0981 defd 2eeb dad1 0d40 110e 5ed4 3efa
00000090: 10a8 f7f4 19c2 b761 0327 10f8 26fd 210a
000000a0: 2baf e67f 53f9 01eb e3c7 e826 05fe 14e1
000000b0: 27ef e5d8 3033 2ec4 24ec ec0b 6b29 40c5
000000c0: 5dbe cdfe baaa 7f1a d7ec f5eb 1d2c 240f
000000d0: 3ff3 1af8 ead9 0607 bd5f 0fce c547 120c
000000e0: de20 9017 0c02 81de 0f68 3035 0d25 2eee
000000f0: b436 abe3 3fc9 02e4 2f91 2cf8 b881 d5d8

model/conv2d_38/Conv2D i1 [48, 1, 1, 136]
-31 31 -55 2 -49 -19 -1 2
4 -50 56 -50 -21 33 1 -75
-59 43 -28 -82 -50 -12 -5 35
-37 78 44 -36 -46 -2 -42 11
-16 -3 -15 -38 -32 -32 -15 -17
-66 5 60 -39 -37 24 -63 33
24 16 75 40 7 -21 16 7
19 -113 64 16 41 -12 -59 -24
10 10 -36 -18 -29 8 -78 -74
38 104 74 -49 12 -27 52 -87
-13 21 41 -12 -6 -50 10 -30
16 -69 -15 -9 17 55 34 115
61 -94 52 51 15 -43 101 0
47 62 -10 -41 -5 60 17 -102
35 4 1 3 -4 -127 -13 1
28 -8 15 3 13 42 43 -66
1 89 -50 48 67 23 9 2
-44 17 20 -5 -30 30 14 -25
-13 127 -54 22 -9 26 -2 -45
-19 20 -41 -10 4 21 -10 43
-37 -18 -47 -25 54 -57 118 4
68 35 14 0 19 48 -48 13
-85 -19 -40 -68 36 2 -46 -5
-75 -36 -11 21 50 -65 -33 11
-18 -83 20 -55 58 -6 -60 19
5 -25 -55 4 0 -29 60 73
-58 -24 -15 -66 22 25 -112 -15
3 43 0 27 28 0 13 -32
-41 -32 -7 15 16 71 3 -41
59 -94 48 -49 -29 -2 35 -10
-37 48 20 40 17 51 110 22
-39 -20 45 -45 29 43 -43 35
00000000: e11f c902 cfed ff02 04ce 38ce eb21 01b5
00000010: c52b e4ae cef4 fb23 db4e 2cdc d2fe d60b
00000020: f0fd f1da e0e0 f1ef be05 3cd9 db18 c121
00000030: 1810 4b28 07eb 1007 138f 4010 29f4 c5e8
00000040: 0a0a dcee e308 b2b6 2668 4acf 0ce5 34a9
00000050: f315 29f4 face 0ae2 10bb f1f7 1137 2273
00000060: 3da2 3433 0fd5 6500 2f3e f6d7 fb3c 119a
00000070: 2304 0103 fc81 f301 1cf8 0f03 0d2a 2bbe
00000080: 0159 ce30 4317 0902 d411 14fb e21e 0ee7
00000090: f37f ca16 f71a fed3 ed14 d7f6 0415 f62b
000000a0: dbee d1e7 36c7 7604 4423 0e00 1330 d00d
000000b0: abed d8bc 2402 d2fb b5dc f515 32bf df0b
000000c0: eead 14c9 3afa c413 05e7 c904 00e3 3c49
000000d0: c6e8 f1be 1619 90f1 032b 001b 1c00 0de0
000000e0: d7e0 f90f 1047 03d7 3ba2 30cf e3fe 23f6
000000f0: db30 1428 1133 6e16 d9ec 2dd3 1d2b d523

model/batch_normalization_56/FusedBatchNormV3;model/depthwise_conv2d_18/depthwise i1 [1, 3, 3, 136]
21 26 13 4 28 -37 15 42
-51 31 -15 33 43 -58 -14 -30
25 56 35 37 -21 -78 0 -6
-36 53 54 -33 65 90 41 37
41 28 46 -74 -11 48 -5 -67
41 6 8 30 115 -20 -72 16
-59 -3 -72 52 -52 46 33 -61
19 -22 25 -11 -2 53 38 45
34 40 47 55 48 35 32 -54
-31 -62 -80 37 -56 -62 58 21
19 -11 -32 -21 27 45 63 -36
43 -5 -91 -65 -32 36 66 35
-11 44 -64 -91 47 9 35 36
49 116 -30 36 33 36 -59 21
42 79 -28 19 16 -36 -55 -28
37 39 25 57 10 -39 -48 9
41 -28 43 50 35 -80 27 48
67 57 33 22 71 -89 50 87
-120 60 -83 83 102 -127 23 -57
61 -11 73 71 -34 -123 18 -69
-58 96 93 -59 127 127 114 54
65 56 99 -127 -54 73 -65 -127
101 57 21 76 107 -20 -101 41
-80 -79 -127 116 -94 111 81 114
53 -68 20 -62 -78 106 86 93
34 63 96 102 34 73 67 -87
-66 -127 -115 73 -97 -105 97 76
42 -35 -87 -65 54 74 22 -85
81 14 -127 46 -23 7 98 61
26 74 -23 -85 85 34 66 57
109 83 -78 98 44 75 -75 55
78 38 -77 64 -62 -67 -67 -48
00000000: 151a 0d04 1cdb 0f2a cd1f f121 2bc6 f2e2
00000010: 1938 2325 ebb2 00fa dc35 36df 415a 2925
00000020: 291c 2eb6 f530 fbbd 2906 081e 73ec b810
00000030: c5fd b834 cc2e 21c3 13ea 19f5 fe35 262d
00000040: 2228 2f37 3023 20ca e1c2 b025 c8c2 3a15
00000050: 13f5 e0eb 1b2d 3fdc 2bfb a5bf e024 4223
00000060: f52c c0a5 2f09 2324 3174 e224 2124 c515
00000070: 2a4f e413 10dc c9e4 2527 1939 0ad9 d009
00000080: 29e4 2b32 23b0 1b30 4339 2116 47a7 3257
00000090: 883c ad53 6681 17c7 3df5 4947 de85 12bb
000000a0: c660 5dc5 7f7f 7236 4138 6381 ca49 bf81
000000b0: 6539 154c 6bec 9b29 b0b1 8174 a26f 5172
000000c0: 35bc 14c2 b26a 565d 223f 6066 2249 43a9
000000d0: be81 8d49 9f97 614c 2add a9bf 364a 16ab
000000e0: 510e 812e e907 623d 1a4a e9ab 5522 4239
000000f0: 6d53 b262 2c4b b537 4e26 b340 c2bd bdd0

model/conv2d_37/Conv2D i1 [136, 1, 1, 24]
-36 8 -71 -67 -31 73 2 -34
-105 -4 109 -45 17 39 37 -17
127 -87 -39 91 18 -47 -22 35
-92 41 51 74 -127 -42 -30 32
20 -13 5 30 73 -100 19 -93
59 9 24 -34 -2 -23 47 2
-51 -32 96 -58 -46 25 -56 73
79 55 88 71 42 -100 36 -62
-64 -82 -70 15 18 -44 -22 127
113 -27 118 64 -127 107 -12 -43
-52 76 64 -72 100 24 -19 50
1 63 -42 -34 27 49 -75 40
-102 -10 -61 -16 49 79 -80 72
41 -79 -13 -98 20 115 -4 -35
-40 103 44 -16 74 57 56 127
0 56 -22 61 -33 -127 -33 -41
-63 3 -94 -102 24 -82 -30 -2
91 26 22 -1 11 -24 4 -1
60 -34 -108 -6 -51 82 -56 -30
37 -127 26 28 33 -4 8 12
-5 -11 86 91 45 115 0 56
40 4 23 20 -42 -36 -22 32
2 -25 -5 43 127 8 -33 34
-71 -36 15 22 23 -8 37 4
50 17 -69 27 39 25 4 -40
9 -43 34 -113 -80 18 13 -36
-49 46 127 -93 -19 -20 86 2
86 29 51 -82 61 -49 -29 50
-68 117 1 24 -87 1 127 35
-5 22 20 121 28 -107 -65 67
55 93 -114 71 -35 101 36 55
83 -23 -11 -62 127 -83 -25 -104
00000000: dc08 b9bd e149 02de 97fc 6dd3 1127 25ef
00000010: 7fa9 d95b 12d1 ea23 a429 334a 81d6 e220
00000020: 14f3 051e 499c 13a3 3b09 18de fee9 2f02
00000030: cde0 60c6 d219 c849 4f37 5847 2a9c 24c2
00000040: c0ae ba0f 12d4 ea7f 71e5 7640 816b f4d5
00000050: cc4c 40b8 6418 ed32 013f d6de 1b31 b528
00000060: 9af6 c3f0 314f b048 29b1 f39e 1473 fcdd
00000070: d867 2cf0 4a39 387f 0038 ea3d df81 dfd7
00000080: c103 a29a 18ae e2fe 5b1a 16ff 0be8 04ff
00000090: 3cde 94fa cd52 c8e2 2581 1a1c 21fc 080c
000000a0: fbf5 565b 2d73 0038 2804 1714 d6dc ea20
000000b0: 02e7 fb2b 7f08 df22 b9dc 0f16 17f8 2504
000000c0: 3211 bb1b 2719 04d8 09d5 228f b012 0ddc
000000d0: cf2e 7fa3 edec 5602 561d 33ae 3dcf e332
000000e0: bc75 0118 a901 7f23 fb16 1479 1c95 bf43
000000f0: 375d 8e47 dd65 2437 53e9 f5c2 7fad e798

model/conv2d_36/Conv2D i1 [24, 1, 1, 136]
60 16 61 120 -46 87 22 71
7 -30 17 1 13 -60 -27 -69
47 -25 -33 -29 -16 -76 -11 8
-73 -29 -25 -8 -46 71 63 -27
-16 3 63 45 74 -2 28 -39
27 -36 37 27 -54 -18 -12 71
-54 -81 -107 -41 35 -44 -56 -40
-24 -34 -39 -80 38 35 -21 89
46 50 17 14 -62 59 -88 7
56 -65 -41 -9 -51 -17 5 53
-35 80 52 50 53 -95 80 -127
78 -12 24 13 23 -13 54 -42
10 -40 -86 34 2 -46 -19 4
4 -50 -16 -73 -9 -96 -5 28
61 20 52 43 77 11 31 35
29 -22 22 81 -37 48 18 57
-37 23 39 -2 33 42 -45 -50
8 -54 -7 14 63 -36 -13 -13
36 3 -2 -18 1 -64 -8 5
-37 70 11 5 -48 5 29 22
-59 18 45 -35 36 -26 21 51
-86 9 1 -12 7 25 -38 45
21 -1 13 24 28 -24 -4 -13
46 -35 -8 40 -48 57 40 -33
-37 -29 -57 -26 -26 -71 -127 -49
19 -39 -25 28 52 -26 45 17
-62 19 63 48 52 -56 -20 6
12 -10 4 4 50 17 -44 -12
-28 4 43 17 -36 -39 49 -27
13 82 69 -39 0 39 -12 50
-1 -8 -5 -2 12 -4 -21 67
44 -35 -17 19 12 8 -21 -37
00000000: 3c10 3d78 d257 1647 07e2 1101 0dc4 e5bb
00000010: 2fe7 dfe3 f0b4 f508 b7e3 e7f8 d247 3fe5
00000020: f003 3f2d 4afe 1cd9 1bdc 251b caee f447
00000030: caaf 95d7 23d4 c8d8 e8de d9b0 2623 eb59
00000040: 2e32 110e c23b a807 38bf d7f7 cdef 0535
00000050: dd50 3432 35a1 5081 4ef4 180d 17f3 36d6
00000060: 0ad8 aa22 02d2 ed04 04ce f0b7 f7a0 fb1c
00000070: 3d14 342b 4d0b 1f23 1dea 1651 db30 1239
00000080: db17 27fe 212a d3ce 08ca f90e 3fdc f3f3
00000090: 2403 feee 01c0 f805 db46 0b05 d005 1d16
000000a0: c512 2ddd 24e6 1533 aa09 01f4 0719 da2d
000000b0: 15ff 0d18 1ce8 fcf3 2edd f828 d039 28df
000000c0: dbe3 c7e6 e6b9 81cf 13d9 e71c 34e6 2d11
000000d0: c213 3f30 34c8 ec06 0cf6 0404 3211 d4f4
000000e0: e404 2b11 dcd9 31e5 0d52 45d9 0027 f432
000000f0: fff8 fbfe 0cfc eb43 2cdd ef13 0c08 ebdb
